Aurora/gym/results/pcc_model_mid_10_best.pt (torch, 18243 bytes, 10 tensors)

mlp_extractor.policy_net.0.weight f4 [32, 30]
0	0x3ea9f86b	0.3319734
1	0xbeb0f726	-0.3456356
2	0xbe06099e	-0.13089606
3	0xbe9a8e66	-0.30186766
4	0xbe863bcd	-0.262175
5	0xbb0983c1	-0.0020983072
6	0x3e47fcb3	0.19529991
7	0xbe39b113	-0.18133955
8	0xbf15f773	-0.585807
9	0x3da687f4	0.081314
10	0xbd5321a7	-0.051545765
11	0xbe5541db	-0.20825903
12	0xbe4a408e	-0.19751188
13	0x3e9e4d64	0.3091842
14	0x3e682521	0.22670414
15	0x3e904af2	0.2818218
16	0x3eb0ff5d	0.34569827
17	0x3c8c0c02	0.01709557
18	0x3e2311fc	0.15924829
19	0x3b85f7c0	0.004088372
20	0x3dfe9966	0.12431602
21	0xbea3bbec	-0.3197931
22	0x3def7ace	0.11693345
23	0xbe899514	-0.2687155
24	0x3c942157	0.018082304
25	0xbe8e9a4b	-0.2785209
26	0xbe1467dc	-0.14492744
27	0x3e8e208f	0.27759215
28	0x3ed1452e	0.40873092
29	0x3b1d492c	0.0023999913
30	0x3cb4a78a	0.022052545
31	0x3dec5c95	0.11541096
32	0x3e4fc765	0.20290907
33	0xbe9256a8	-0.28581738
34	0xbe7e28ec	-0.24820298
35	0x3d44f00f	0.0480805
36	0xbeb88177	-0.36036274
37	0x3e2ee21d	0.17078443
38	0x3e2cd2c7	0.1687728
39	0xbed6e7e9	-0.41973808
40	0xbeaa5411	-0.33267263
41	0xbee3db94	-0.44503462
42	0x3f23e1e2	0.64016545
43	0x3d6995a3	0.05702747
44	0x3d5aa465	0.053379435
45	0x3e6587d2	0.22415093
46	0x3e903d38	0.28171706
47	0x3e9af77a	0.30266935
48	0xbdf5be1b	-0.1199915
49	0x3dd669e1	0.104694135
50	0xbe439235	-0.19098742
51	0xbe5f3a2a	-0.21799532
52	0x3c6566eb	0.014001588
53	0x3d0c3fb6	0.034240447
54	0xbee44679	-0.44585016
55	0xbe338278	-0.17530239
56	0xbd294bbf	-0.041332003
57	0xbdedfb52	-0.11620201
58	0xbe727ff9	-0.2368163
59	0xbd46c7b5	-0.0485303
60	0x3e8af74c	0.27141798
61	0xbe6c873d	-0.23098464
62	0x3df515ec	0.11967072
63	0x3e260656	0.16213354
64	0xbd995ace	-0.07488023
65	0xbcd18b6a	-0.025579173
66	0x3e336ec1	0.17522718
67	0x3d3372fa	0.043810822
68	0x3dc2b183	0.09506514
69	0xbeaf6fa8	-0.34264874
70	0xbe0bb920	-0.13644838
71	0xbe823ca4	-0.2543689
72	0xbddcfae4	-0.10790041
73	0x3d1e8784	0.038703457
74	0xbed2b6fd	-0.41155234
75	0xbe103413	-0.14082365
76	0x3d2687f1	0.040656988
77	0xbd70907e	-0.05873155
78	0xbd8837b1	-0.06651247
79	0x3e6ea69c	0.23305744
80	0x3e21f881	0.15817453
81	0xbe365588	-0.17806065
82	0x3f03fda7	0.5155892
83	0x3e1806e6	0.14846382
84	0x3f1852fa	0.5950161
85	0x3d5f99da	0.054590084
86	0xbea4f0dd	-0.32215014
87	0x3e863330	0.26210928
88	0xbea30d71	-0.31846192
89	0x3eb40a50	0.35164118
90	0xbeafa0cc	-0.34302366
91	0xbec98e9d	-0.39366618
92	0xbd957193	-0.07297053
93	0xbe94c9db	-0.29060254
94	0xbdfbfa05	-0.12303547
95	0xbec1c2ef	-0.37844035
96	0xbaf6ab78	-0.0018819412
97	0x3ee25be0	0.4421072
98	0xbcb19672	-0.021678183
99	0x3d6658eb	0.056237143
100	0x3e4295cc	0.19002455
101	0x3e1d6b20	0.15372896
102	0xbdf0d76a	-0.11759837
103	0x3edc2561	0.42997268
104	0x3d66d2f0	0.05635351
105	0xbe803837	-0.2504289
106	0xbe0806d7	-0.13283859
107	0xbe2fc734	-0.17165834
108	0xbcf93c05	-0.030424127
109	0xbe8312a5	-0.25600162
110	0xbdfd5aac	-0.1237081
111	0xbd38655e	-0.045018546
112	0x3eb3d033	0.3511978
113	0x3e821280	0.2540474
114	0xbbc0f106	-0.005888107
115	0xbed9f644	-0.42570698
116	0xbe39fe84	-0.18163496
117	0xbf1726cc	-0.59043574
118	0xbe4b25ef	-0.1983869
119	0xbdee8b96	-0.11647718
120	0x3c322f02	0.010875465
121	0xbe710474	-0.23536855
122	0xbf218624	-0.6309531
123	0xbeac6726	-0.33672446
124	0xbe5b6f0b	-0.21429078
125	0x3ea3fd04	0.32028973
126	0xbe8ae5bf	-0.27128407
127	0x3e223d52	0.15843704
128	0x3cb221b3	0.021744585
129	0xbd45990a	-0.048241653
130	0xbcea28f6	-0.028583985
131	0xbd477e36	-0.04870435
132	0x3df19056	0.11795108
133	0x3e0f303d	0.13983245
134	0x3d5da13b	0.05410884
135	0x3e96cc76	0.29452866
136	0xbefa89e6	-0.48933333
137	0xbd6f5e6c	-0.058439657
138	0xbe972796	-0.2952239
139	0x3d2d40b0	0.04229802
140	0x3d7ceccd	0.06174927
141	0x3cf4b7c0	0.029872775
142	0xbf1172e4	-0.56815934
143	0xbe5cf0f2	-0.21576288
144	0x3f086f14	0.5329449
145	0x3d0fae82	0.035078533
146	0x3ca83d0d	0.020536924
147	0xbd7b1c7e	-0.06130647
148	0xbdf06816	-0.11738603
149	0x3dcf5d81	0.10125256
150	0xbddc8e69	-0.1076935
151	0x3d4d0f24	0.050063267
152	0x3e8aebf8	0.27133155
153	0xbefaa6a7	-0.4895527
154	0xbe242d32	-0.16032866
155	0xbeda1d1b	-0.4260033
156	0xbd7e7f16	-0.062132917
157	0xbd37631b	-0.04477225
158	0xbeab4443	-0.33450517
159	0x3d8e5ce9	0.06951315
160	0xbe9a4ce8	-0.301368
161	0xbd3b4429	-0.0457193
162	0x3dee02c7	0.116216235
163	0xbdbda438	-0.09259838
164	0x3e264908	0.16238797
165	0x3e3e16d7	0.185634
166	0xbec31b9b	-0.38107
167	0xbe43e249	-0.1912929
168	0x3e15a97d	0.14615436
169	0x3e019b75	0.12656958
170	0xbe8348a0	-0.25641346
171	0x3ebe5d9e	0.371808
172	0x3e589a46	0.211526
173	0x3e7fe539	0.24989785
174	0x3dac2d62	0.084070936
175	0x3f04110a	0.515885
176	0xbd402cc8	-0.046917707
177	0x3dea948a	0.11454113
178	0x3ed90b9f	0.4239168
179	0xbdcdf998	-0.10057372
180	0xbe1b549e	-0.15168998
181	0x3f116d82	0.5680772
182	0x3db230ee	0.08700739
183	0x3a9e0f12	0.0012058935
184	0x3e8c65e1	0.27421477
185	0xbe1526d4	-0.14565593
186	0x3ed7a3fc	0.42117298
187	0xbe24d999	-0.16098632
188	0x3dd5dc4b	0.10442408
189	0x3daf4c74	0.08559504
190	0x3c0438ba	0.008070165
191	0xbe6c9b1c	-0.23106045
192	0x3e04388a	0.12912193
193	0x3e972221	0.29518226
194	0x3dd74275	0.105107225
195	0x3eaf3d84	0.3422662
196	0xbefd027a	-0.49415952
197	0x3b9df110	0.0048199967
198	0xbe349321	-0.1763425
199	0xbe102443	-0.14076333
200	0xbefa775c	-0.4891919
201	0xbd82a470	-0.0637902
202	0x3e507a8a	0.20359245
203	0xbe8abfa0	-0.27099323
204	0x3e4f6dc6	0.20256719
205	0xbeb984a3	-0.36234006
206	0xbe010464	-0.12599331
207	0x3e7ee92d	0.24893637
208	0xbe4bf70d	-0.19918461
209	0x3e21d8da	0.15805379
210	0xbbe6ecb8	-0.007047262
211	0x3e6c6557	0.23085533
212	0xbe8d7e19	-0.27635267
213	0x3e018ee7	0.12652169
214	0x3ddf102b	0.10891756
215	0xbeedef03	-0.46471414
216	0xbea53548	-0.32267213
217	0x3eadba7f	0.33931348
218	0xbe673638	-0.22579277
219	0xbe103069	-0.14080967
220	0xbd9d8ced	-0.07692895
221	0xbe15339a	-0.14570466
222	0x3d95177b	0.07279869
223	0xbec41da2	-0.38303858
224	0x3e56fa0b	0.20993821
225	0xbe139dda	-0.14415684
226	0x3e80ec15	0.25180116
227	0xbf3a899d	-0.7286623
228	0xbd880a6b	-0.06642612
229	0x3d71f5c3	0.059072267
230	0x3db4755b	0.08811446
231	0x3d589b55	0.05288251
232	0xbdbb7b36	-0.0915436
233	0xbec9c842	-0.39410597
234	0xbde30ea3	-0.11086776
235	0xbe07d820	-0.13266039
236	0xbecba1b3	-0.39771804
237	0x3e176417	0.14784275
238	0xbdcf21d6	-0.101138756
239	0x3e3c21e8	0.18372309
240	0xbe4b527f	-0.19855689
241	0xbe1e848b	-0.15480249
242	0x3ea3b5b1	0.31974557
243	0x3da77cbd	0.08178089
244	0x3e0c2372	0.13685396
245	0x3ebed2f0	0.37270308
246	0x3e3560b1	0.17712666
247	0x3e9b00d3	0.30274066
248	0x3de819d6	0.11333053
249	0xbe9010a5	-0.281377
250	0xbe370caf	-0.17875932
251	0x3e1ede80	0.15514565
252	0x3de70434	0.112800986
253	0xbbcee472	-0.006313854
254	0x3f0613eb	0.5237414
255	0xbe333448	-0.17500412

mlp_extractor.policy_net.0.bias f4 [32]
0	0xbc825c93	-0.015913283
1	0xbcab1982	-0.020886187
2	0xba2b6936	-0.000653881
3	0xbb8b6d76	-0.004254992
4	0x3a49ae80	0.0007693544
5	0xba184635	-0.00058088015
6	0x3bbb7aaa	0.00572141
7	0x3c22c12d	0.009933752
8	0x3c7a6a2e	0.015284104
9	0xbc57f8d1	-0.013181881
10	0xbc1e6bbc	-0.009669241
11	0xbc88c7e5	-0.01669688
12	0x3c83e64c	0.016101025
13	0x3b910ed6	0.0044268174
14	0xbbf3d37b	-0.007440982
15	0xbc4f1123	-0.012638363
16	0x3bee087f	0.0072641964
17	0xbbf637db	-0.0075139827
18	0xbc1ad64f	-0.009450509
19	0xbc0d7543	-0.008633914
20	0x3bcd7280	0.006269753
21	0x3a31b990	0.0006779665
22	0xbc89c503	-0.016817575
23	0x3c5e895d	0.013582555
24	0x3a9adefc	0.0011815722
25	0x3c9cb5a7	0.019129587
26	0x3b011b8f	0.0019700264
27	0xbbc74ba8	-0.006082017
28	0xbc629c28	-0.013831176
29	0xbcd2b7a4	-0.025722332
30	0xbc37367c	-0.011182424
31	0xbb847dc2	-0.004043312

mlp_extractor.policy_net.1.weight f4 [16, 32]
0	0xbf1d6713	-0.61485404
1	0x3e8d0309	0.27541378
2	0xbe7c68f7	-0.24649416
3	0xbd7f8ca5	-0.06238999
4	0xbd667200	-0.056261063
5	0xbe3b1c70	-0.18272567
6	0xbea29612	-0.3175512
7	0x3cf45699	0.02982645
8	0xbe807f8a	-0.25097305
9	0xbde1ab9e	-0.110190615
10	0x3e032e09	0.1281053
11	0x3e97bd4b	0.29636607
12	0xbea99a5d	-0.33125582
13	0xbe5b3957	-0.21408592
14	0xbca0deef	-0.019637553
15	0x3e9530ed	0.2913889
16	0x3ec691fa	0.38783246
17	0xbde20b8c	-0.11037359
18	0x3ef6740e	0.48135418
19	0xbd78cd0e	-0.06074243
20	0x3cc95051	0.02457443
21	0x3e9ffd04	0.31247723
22	0x3d9e3cda	0.0772645
23	0xbe1e40f9	-0.15454473
24	0x3e02b700	0.12765121
25	0x3f0812d8	0.53153753
26	0xbe7e5b75	-0.24839576
27	0x3dec967b	0.11552139
28	0x3db15e51	0.086605676
29	0xbcbeff2a	-0.023315031
30	0xbdb87df1	-0.090083964
31	0xbd836eb6	-0.06417601
32	0x3c107165	0.008816098
33	0x3e3aa3b9	0.18226518
34	0xbe59704c	-0.21234244
35	0x3e179213	0.14801817
36	0x3e09d7df	0.13461255
37	0xbba042d4	-0.004890779
38	0x3c4d422c	0.012527984
39	0x3e108464	0.14113003
40	0x3e69876a	0.22805563
41	0xbe484b48	-0.19559968
42	0xbe2f3774	-0.17110997
43	0x3eca53b7	0.39516994
44	0xbe34470d	-0.17605229
45	0x3e783efd	0.24242778
46	0xbdde653b	-0.10859152
47	0xbca7544d	-0.02042594
48	0xbb043f04	-0.0020179162
49	0xbf0199a4	-0.5062506
50	0xbc5ea4d9	-0.013589107
51	0x3f070fd6	0.5275854
52	0x3e41270b	0.1886255
53	0xbe8229b6	-0.25422448
54	0xbe7cdd74	-0.24693853
55	0xbe34c27f	-0.1765232
56	0xbe933599	-0.2875183
57	0x3e4c9eba	0.19982424
58	0x3e9b68a5	0.30353275
59	0xbf1d3ecd	-0.6142395
60	0xbe90294a	-0.281565
61	0xbd4cf7a5	-0.05004086
62	0xbe363d23	-0.1779676
63	0x3e85890d	0.26081124
64	0xbde24221	-0.11047769
65	0xbe660868	-0.22464144
66	0x3d49caab	0.049265545
67	0xbf29c3d7	-0.6631445
68	0x3db8798d	0.09007559
69	0x3e07dac8	0.13267052
70	0xbd097824	-0.03356184
71	0xbe63f12e	-0.22259971
72	0x3ee74346	0.45168513
73	0xbf23a0ae	-0.6391705
74	0xbcda5fd8	-0.02665703
75	0xbd18715f	-0.037217494
76	0x3db7c939	0.08973927
77	0x3f0f834a	0.56059706
78	0xbecf21f2	-0.40455586
79	0x3db06b06	0.08614163
80	0xbbc48a62	-0.005997942
81	0xbcd814e4	-0.026377149
82	0x3d3adae7	0.045618918
83	0xbed72968	-0.42023778
84	0xbe32e4c4	-0.1747008
85	0x3e1af92c	0.15134114
86	0xbc86dff6	-0.016464215
87	0x3e2eea25	0.17081507
88	0xbd9d970e	-0.07694827
89	0x3e7cfc21	0.24705555
90	0x3c305884	0.010763291
91	0xbe385afd	-0.1800346
92	0xbd63857b	-0.05554722
93	0xbe3747c5	-0.17898472
94	0x3e424c48	0.18974411
95	0xbe05931c	-0.13044399
96	0xbe8f771c	-0.2802056
97	0xbefe341e	-0.49649137
98	0xbde7152b	-0.11283334
99	0x3e03d810	0.1287539
100	0x3ec70dc1	0.3887768
101	0x3e2f59e5	0.17124136
102	0xbde76ab2	-0.112996474
103	0xbe41998d	-0.18906231
104	0x3e57e452	0.21083191
105	0x3cd491a5	0.025948355
106	0xbee0dcfb	-0.43918595
107	0x3bbcd3c1	0.0057625477
108	0x3ddf7052	0.10910095
109	0xbef48bca	-0.477629
110	0xbe58d216	-0.21173891
111	0xbe4e97d6	-0.20175108
112	0x3f0378c5	0.51356155
113	0xbc1e9605	-0.009679322
114	0xbda57cf4	-0.080804735
115	0xbe8b8978	-0.27253318
116	0x3e09b2dd	0.13447137
117	0x3d9df0d7	0.07711952
118	0xbee7f050	-0.4530053
119	0xbdd39f19	-0.1033308
120	0xbe53fc26	-0.20701656
121	0xbe7183b3	-0.23585396
122	0xbe92665f	-0.28593728
123	0xbdfbd209	-0.122959204
124	0x3c92fdc7	0.017943276
125	0x3e499d1a	0.19688836
126	0x3cf48a2d	0.029851044
127	0x3e54ad4f	0.20769237
128	0x3e1e19a2	0.15439466
129	0xbd1bb8cc	-0.038018033
130	0xbd8c4a10	-0.06850064
131	0x3cf28bfc	0.029607765
132	0xbf33f077	-0.70288795
133	0xbe906440	-0.28201485
134	0x3e85aa62	0.26106554
135	0xbe03debd	-0.12877937
136	0x3e434184	0.19067961
137	0xbea685cb	-0.3252395
138	0xbe88bacf	-0.26705024
139	0x3d71a5f7	0.058996167
140	0xbac08cb2	-0.0014690368
141	0xbdaac0aa	-0.08337529
142	0xbdec990c	-0.11552629
143	0x3e93eb75	0.28890577
144	0xbd066b84	-0.03281738
145	0x3e888824	0.26666367
146	0x3e0a3a72	0.13498858
147	0xbdfc81ba	-0.12329431
148	0xbc727ef6	-0.014800778
149	0x3c4fa8b3	0.012674498
150	0xbdc61ada	-0.0967309
151	0xbe96d2a5	-0.29457584
152	0x3e1a2a6b	0.15055244
153	0xbe119930	-0.14218593
154	0x3e222e44	0.15837961
155	0xbdd4fe87	-0.1040011
156	0x3e66b886	0.22531328
157	0x3f28fb8b	0.66008824
158	0xbedd0c23	-0.43173322
159	0x3debf735	0.115217604
160	0x3e839cd5	0.2570559
161	0x3de83d39	0.11339802
162	0x3db09a60	0.08623195
163	0x3e8619a7	0.26191446
164	0xbe0d6ec9	-0.13811792
165	0x3e834326	0.25637168
166	0xbe532478	-0.2061938
167	0xbe69b4d0	-0.2282288
168	0xbebd10f6	-0.36927003
169	0x3e422153	0.18958025
170	0xbeb62be2	-0.35580355
171	0xbe471cfa	-0.19444647
172	0xbea20ec4	-0.3165189
173	0x3e4c9db6	0.19982037
174	0xbddad80f	-0.10685741
175	0xbd9966c9	-0.07490308
176	0x3e4c1cb6	0.19932827
177	0xbe2ef0d1	-0.17084052
178	0x3cef5df8	0.029219612
179	0xbecb0e2e	-0.39659256
180	0x3e81610a	0.25269347
181	0x3db7b2aa	0.08969624
182	0x3e7c7f8e	0.24658033
183	0x3ed73519	0.42032698
184	0xbd8967ed	-0.067092754
185	0x3e1f9b58	0.15586603
186	0x3e8d85e1	0.27641204
187	0xbecf1828	-0.40448117
188	0x3f162009	0.5864263
189	0xbd85cb71	-0.06532944
190	0xbd4bdc14	-0.04977043
191	0x3de89a5a	0.11357565
192	0x3e742123	0.23840766
193	0x3da62b36	0.081137106
194	0x3d503581	0.050832275
195	0xbdd0c8ad	-0.10194526
196	0x3e1ddc09	0.15415968
197	0x3eb5e74a	0.35528022
198	0xbe833a52	-0.25630432
199	0xbcaac58f	-0.020846156
200	0x3d3ed663	0.046591174
201	0xbcff6efd	-0.031180853
202	0x3d70cfa4	0.05879177
203	0xbe75257c	-0.2394008
204	0xbf195908	-0.59901476
205	0x3e7f83ab	0.24952571
206	0x3e156f06	0.14593133
207	0x3e227253	0.15863924
208	0x3e277878	0.16354549
209	0x3ec21eff	0.37914273
210	0x3ed5e115	0.41773286
211	0x3eb15248	0.34633088
212	0x3e56b8b5	0.20968898
213	0x3cb429e3	0.02199263
214	0xbd8f6894	-0.070023686
215	0xbdc8258f	-0.09772789
216	0xbd16ce9b	-0.036818128
217	0xbeafe4ad	-0.34354153
218	0xbdcff195	-0.101535
219	0xbc48ad82	-0.012248399
220	0xbe478fdc	-0.19488472
221	0x3ee4ef08	0.44713616
222	0x3ef7157a	0.48258573
223	0xbb091747	-0.0020918415
224	0xbd7154a2	-0.058918603
225	0xbe4e4866	-0.20144805
226	0xbec4408d	-0.38330498
227	0x3ee4c541	0.44681743
228	0x3ec392d0	0.38197947
229	0xbe55d933	-0.20883636
230	0xbd8a67ec	-0.06758103
231	0xbe3023f2	-0.17201212
232	0xbe88b074	-0.26697123
233	0xbe59a1b0	-0.21253085
234	0x3e0bc677	0.13649927
235	0xbe97479e	-0.29546827
236	0x3ec305b0	0.38090277
237	0x3e7ff06e	0.2499406
238	0x3d93bf07	0.0721417
239	0x3ebac633	0.3647934
240	0x3ebec663	0.37260732
241	0x3efa364d	0.48869553
242	0xbdec24b9	-0.11530442
243	0x3c9fe457	0.01951806
244	0xbe0e9ec9	-0.13927759
245	0xbe915944	-0.28388417
246	0x3e6802a8	0.22657263
247	0xbd08f18e	-0.03343349
248	0xbd8c3006	-0.06845097
249	0x3e8a0847	0.2695944
250	0x3ec45b4d	0.38350907
251	0xbdd6d5b7	-0.104899816
252	0xbe327b54	-0.17429858
253	0x3dd4f770	0.103987575
254	0x3ca71f08	0.020400539
255	0xbc020a84	-0.007937077

mlp_extractor.policy_net.1.bias f4 [16]
0	0xbba846ff	-0.0051354165
1	0x3bb7c912	0.0056086862
2	0x3c9149ce	0.017735388
3	0x3c4e9546	0.012608832
4	0xbc5731c5	-0.013134425
5	0xbb971489	-0.0046106023
6	0xbca3da5b	-0.020001581
7	0x3b8b6035	0.004253412
8	0x3a8ed036	0.0010895792
9	0x3b34d4b9	0.0027592613
10	0x3c07abe1	0.008280725
11	0xbba680a9	-0.0050812555
12	0xbbf74d17	-0.0075470316
13	0x3c95a961	0.018269243
14	0xbca969f6	-0.020680409
15	0x3becb454	0.007223645

mlp_extractor.policy_net.2.weight f4 [1, 16]
0	0xbdef9625	-0.1169856
1	0x3e0fb7e6	0.14034995
2	0x3f128a49	0.57242256
3	0x3eb8345f	0.35977456
4	0xbeb57eb4	-0.3544823
5	0xbdc6232c	-0.09674677
6	0xbf2ab1f7	-0.666778
7	0x3dc59aff	0.09648704
8	0x3d0890cf	0.033341225
9	0x3d6088eb	0.054818075
10	0x3e5b5f68	0.21423113
11	0xbded31a8	-0.11581737
12	0xbe39d11f	-0.1814618
13	0x3f15f443	0.5857584
14	0xbf377537	-0.7166323
15	0x3e435fd1	0.1907952

mlp_extractor.value_net.0.weight f4 [32, 30]
0	0x3db27a33	0.08714714
1	0x3eb6276d	0.35576954
2	0x3d16c842	0.036812074
3	0x3c19e03f	0.009391843
4	0xbe4acbcb	-0.19804303
5	0x3d38f203	0.045152675
6	0xbe5df29a	-0.21674576
7	0x3d1701f9	0.036867116
8	0x3c0fcfb6	0.0087775495
9	0x3e91efef	0.28503367
10	0xbee58752	-0.44829804
11	0x3f13f9c9	0.57803017
12	0xbe05c4a5	-0.13063295
13	0x3d5bf406	0.053699516
14	0x3def0b2d	0.116720535
15	0x3d1453a8	0.036212593
16	0xbea06b51	-0.31331876
17	0xbda39a64	-0.07988432
18	0x3ddf235f	0.108954184
19	0xbde4bf97	-0.11169355
20	0x3c39eeee	0.011348469
21	0xbdfe487c	-0.12416169
22	0x3ee00423	0.43753156
23	0xbce0e559	-0.027453111
24	0xbd80f0a8	-0.062959015
25	0x3ea39319	0.31948164
26	0x3d4839d1	0.048883263
27	0xbf244856	-0.64172876
28	0xbed02236	-0.406511
29	0x3d7346bd	0.059393633
30	0x3d994373	0.07483568
31	0xbe7f1b7f	-0.24912833
32	0x3d86baeb	0.065786205
33	0xbe048fe2	-0.12945512
34	0x3e5a9ee6	0.21349677
35	0xbe229e6d	-0.15880747
36	0x3e230519	0.15919913
37	0xbd67f663	-0.056631457
38	0x3e32b758	0.17452753
39	0x3ea17288	0.31532693
40	0x3dbd664d	0.09248028
41	0xbc8b80c6	-0.017029177
42	0x3dc419f0	0.0957526
43	0xbe95bf55	-0.29247537
44	0xbcf7b507	-0.030237688
45	0xbe5f11dc	-0.21784157
46	0xbc85bf3c	-0.01632654
47	0x3ed37fb1	0.41308358
48	0x3f0adfa9	0.5424753
49	0xbe036871	-0.1283281
50	0xbefe7833	-0.4970108
51	0xbe8f47aa	-0.27984363
52	0x3e3fe680	0.18740273
53	0x3e5199a0	0.2046876
54	0x3e7f4db1	0.2493198
55	0xbe2c1ae7	-0.16807137
56	0x3ec077af	0.3759131
57	0xbe8caef6	-0.27477235
58	0x3eac9ce3	0.33713445
59	0xbe5c2166	-0.21497115
60	0xbe11422a	-0.14185396
61	0x3e426b55	0.18986256
62	0xbd78b710	-0.060721457
63	0xbeaba173	-0.33521613
64	0x3e3af3c5	0.18257053
65	0xbe88db33	-0.26729736
66	0x3e909585	0.28239074
67	0xbd945cb4	-0.07244244
68	0x3df4f863	0.119614385
69	0x3d052e73	0.032515
70	0x3b337653	0.002738376
71	0xbe277ba6	-0.16355762
72	0x3e318162	0.17334512
73	0x3e6dda6e	0.23227856
74	0xbe560286	-0.208994
75	0x3f059180	0.5217514
76	0xbe32af83	-0.17449765
77	0xbdd2ca2e	-0.10292469
78	0xbd982f25	-0.07430867
79	0xbe340606	-0.17580423
80	0xbe7b979f	-0.24569558
81	0x3f22385a	0.63367236
82	0xbe33af64	-0.17547375
83	0xbe3f124c	-0.18659323
84	0x3d898643	0.067150615
85	0x3ed06afb	0.4070662
86	0x3ea97478	0.3309667
87	0xbe7702cf	-0.24122165
88	0xbe059d9e	-0.13048407
89	0xbc191354	-0.009342987
90	0xbda1b173	-0.07895174
91	0x3daa9b4a	0.083304
92	0xbd9e5936	-0.077318594
93	0xbed8cc38	-0.42343307
94	0xbc9dbc31	-0.019254776
95	0x3d89ae98	0.06722754
96	0xbe048729	-0.12942185
97	0xbca430c6	-0.020042788
98	0x3e0be5b2	0.1366184
99	0xbe8b2ae0	-0.2718115
100	0xbe5683d5	-0.20948727
101	0xbeb1fdf8	-0.34764075
102	0xbec00141	-0.37500957
103	0xbdbdcab2	-0.09267177
104	0xbcff1923	-0.031139916
105	0xbebd7e43	-0.37010393
106	0xbf28d6ff	-0.6595306
107	0xbec5ac98	-0.3860824
108	0xbe283144	-0.16425043
109	0xbe44e207	-0.19226848
110	0xbd2ea284	-0.042635456
111	0xbe87a08b	-0.26489672
112	0x3e651cf5	0.22374327
113	0xbcd70aef	-0.02625033
114	0xbed08cc0	-0.40732384
115	0xbd633669	-0.05547181
116	0x3e9d27b1	0.30694345
117	0x3e83290b	0.2561725
118	0x3e4f35e7	0.20235406
119	0x3df17cf6	0.117914125
120	0x3cf368d1	0.029713066
121	0xbd8242a2	-0.063603655
122	0x3f075249	0.5285993
123	0xbe08b245	-0.13349254
124	0x3d3fba62	0.046808608
125	0xba10cb2d	-0.00055234396
126	0x3e4561b1	0.19275548
127	0xbf63d922	-0.89003193
128	0x3df2b307	0.11850553
129	0x3e29a364	0.16566235
130	0xbe4e8473	-0.20167713
131	0x3e4a0537	0.19728552
132	0x3e895725	0.26824299
133	0xbc61f1c8	-0.013790555
134	0x3cdb0610	0.02673629
135	0xbe443e97	-0.19164501
136	0xbe9244dd	-0.28568164
137	0x3e7407cb	0.23831098
138	0xbec75c58	-0.3893764
139	0x3e23f163	0.1601005
140	0x3db3d6d4	0.087812096
141	0x3e24e6e3	0.16103701
142	0xbe43baf8	-0.19114292
143	0xbd0be437	-0.03415319
144	0xbce80ef3	-0.02832744
145	0xbe78b65c	-0.24288315
146	0x3e35b92c	0.17746419
147	0x3e0181f6	0.12647232
148	0xbdab2e16	-0.083583996
149	0x3ebd09b3	0.36921462
150	0xbdcc940e	-0.09989177
151	0x3d27ec38	0.04099676
152	0xbe8863d5	-0.26638666
153	0x3d71abe7	0.05900183
154	0xbe13394f	-0.1437733
155	0x3f0bd7ad	0.5462597
156	0xbdbcc9a8	-0.092181504
157	0xbecabecf	-0.395987
158	0x3edf2446	0.43582362
159	0xbe8692ef	-0.26283976
160	0x3e89f703	0.26946267
161	0x3e90b286	0.28261203
162	0x3d12a3a6	0.0358006
163	0x3edb68d4	0.42853415
164	0xbe612741	-0.2198763
165	0xbd832692	-0.06403841
166	0x3d2f036d	0.042727876
167	0x3ef09799	0.4699066
168	0xbd26a433	-0.040683936
169	0xbe6af815	-0.22946198
170	0xbe49a14f	-0.1969044
171	0xbea56795	-0.3230559
172	0x3e1f8020	0.1557622
173	0xbe8f9473	-0.28042945
174	0xbddfbbc2	-0.10924484
175	0xbdee7075	-0.11642543
176	0x3e4c943c	0.19978422
177	0xbe0e80fb	-0.1391639
178	0xbdf6b9ff	-0.12047195
179	0x3d9e9181	0.077425964
180	0xbc47c668	-0.0121933
181	0xbdb5f7f7	-0.08885186
182	0xbd6400f9	-0.05566499
183	0xbecbf9b2	-0.3983894
184	0x3e07a685	0.13247116
185	0xbdb09c67	-0.086235814
186	0xbe795cc9	-0.24351801
187	0x3dbdb610	0.09263241
188	0xbe942ef0	-0.2894206
189	0x3d82f8be	0.063951
190	0x3ea0d048	0.31408906
191	0x3eb30abf	0.34969136
192	0x3f1e5bae	0.6185864
193	0xbd2cf832	-0.042228885
194	0x3ee0b9d5	0.4389178
195	0xbe919356	-0.2843272
196	0xbd94f2bb	-0.0727286
197	0x3e82c194	0.25538313
198	0x3e3e080a	0.18557754
199	0xbe3fc44f	-0.1872723
200	0x3e281835	0.16415484
201	0x3e79efb5	0.24407847
202	0x3e73a411	0.23793055
203	0x3c2614d7	0.010136805
204	0xbf1082cc	-0.5644958
205	0x3d8a735e	0.06760286
206	0xbe58b172	-0.2116144
207	0x3e1f3bcf	0.15550159
208	0xbd780ade	-0.06055724
209	0x3e0bc3ac	0.13648862
210	0xbe1780ba	-0.14795199
211	0xbda9b539	-0.082865186
212	0x3c61f11d	0.013790396
213	0x3e1532b2	0.1457012
214	0xbe9a23b3	-0.3010536
215	0xbeb38614	-0.3506323
216	0x3e01bc5c	0.1266951
217	0xbe53626f	-0.20643018
218	0xbe20558a	-0.1565763
219	0xbd941cfa	-0.07232089
220	0x3ebfedf9	0.37486246
221	0xbdadbbce	-0.084830865
222	0xbed38ed1	-0.41319898
223	0xbd42c5f9	-0.047552083
224	0xbce11847	-0.027477397
225	0xbd77f9d7	-0.060541
226	0x3e64bc4a	0.22337452
227	0x3d355c49	0.044277463
228	0x3cdff5c1	0.027338864
229	0x3e0cffc0	0.13769436
230	0xbf0f88ff	-0.56068414
231	0x3e61d732	0.22054747
232	0x3e9e5c4f	0.309298
233	0x3d2547e6	0.04035177
234	0xbeaf54db	-0.34244427
235	0x3e8f7a0a	0.28022796
236	0x3ddff4f7	0.10935395
237	0x3ee94cb3	0.4556633
238	0xbf0567a3	-0.5211126
239	0xbe996903	-0.2996293
240	0x3d941e5a	0.072323516
241	0xbe7ea53e	-0.24867722
242	0x3ddc1cd4	0.10747686
243	0x3effb4e6	0.49942702
244	0xbe9cdc0b	-0.3063663
245	0x3b723b4c	0.0036961613
246	0x3e97cc1c	0.2964791
247	0xbdc7961a	-0.097454265
248	0x3c20ac91	0.009806768
249	0xbe0f5dff	-0.140007
250	0xbe10157e	-0.14070699
251	0x3e2e851d	0.17042966
252	0x3eddbdf1	0.43308976
253	0xbd03faab	-0.032221477
254	0xbe82f7ca	-0.25579673
255	0x3eb1e736	0.34746712

mlp_extractor.value_net.0.bias f4 [32]
0	0x3d2b9fd6	0.04190048
1	0x3d0b012f	0.033936676
2	0xbbda4c40	-0.0066619217
3	0x3d009af7	0.031397786
4	0x3d0bc86e	0.03412669
5	0x3d0c1952	0.034203835
6	0x3d04d9df	0.03243434
7	0xbce4a9a7	-0.027912928
8	0xbd06b833	-0.03289051
9	0xbcf397f5	-0.029735545
10	0xbcfedda3	-0.031111544
11	0xbcdd4c14	-0.027013816
12	0xbd0a150c	-0.033711478
13	0x3d15b258	0.036547035
14	0x3cf9b2c5	0.030480752
15	0xbd3d24ce	-0.046177678
16	0xbd0225f1	-0.031774465
17	0x3d277550	0.040883362
18	0xbd03a791	-0.032142226
19	0xbcf3f947	-0.02978195
20	0xbd0d4ccd	-0.03449707
21	0xbd04652f	-0.03232306
22	0xbd04602d	-0.032318283
23	0xbcf55051	-0.029945524
24	0xbd07f202	-0.03318978
25	0xbcd3a1f5	-0.025834063
26	0xbd045a31	-0.032312576
27	0x3d01b048	0.031662256
28	0xbd159ece	-0.0365284
29	0xbd09004f	-0.03344756
30	0x3bb80457	0.0056157517
31	0xbd02555b	-0.031819683

mlp_extractor.value_net.1.weight f4 [16, 32]
0	0xbe88f678	-0.2675054
1	0xbe888769	-0.2666581
2	0xbc6c87bd	-0.014436659
3	0x3f03383c	0.5125768
4	0xbb2e1c08	-0.0026567
5	0xbdc0255d	-0.093821265
6	0xbde4d5b0	-0.1117357
7	0x3ce95c4a	0.02848639
8	0x3e0d3c0b	0.13792436
9	0xbe8b4ede	-0.27208608
10	0xbe6c84ca	-0.2309753
11	0xbeae9e84	-0.34105313
12	0xbe95b680	-0.292408
13	0xbe991f58	-0.29906726
14	0x3dd2ccaa	0.10292943
15	0x3cd45069	0.025917249
16	0xbe983aed	-0.29732457
17	0xbe6d667b	-0.23183624
18	0x3ea6f1c2	0.32606322
19	0x3e1791bc	0.14801687
20	0x3e943b61	0.28951553
21	0xbc219618	-0.009862445
22	0xbcca868e	-0.024722364
23	0x3e8de223	0.2771159
24	0xbeb90649	-0.36137608
25	0x3e9c6a5f	0.30549905
26	0xbdef39c4	-0.1168094
27	0xbe8fc8ba	-0.2808283
28	0x3da583ad	0.08081756
29	0xbe7e6a71	-0.24845292
30	0x3ed506d2	0.41606766
31	0xbe3746aa	-0.1789805
32	0xbe18bd82	-0.14916041
33	0x3e52bedc	0.2058062
34	0x3e35cffa	0.17755118
35	0xbe14d028	-0.1453253
36	0xbc879554	-0.016550697
37	0xbb789030	-0.003792774
38	0x3d81528e	0.06314574
39	0xbf04ffa3	-0.5195257
40	0x3e77019f	0.24121712
41	0x3d597916	0.053093992
42	0x3d36ce09	0.044630084
43	0xbd2d5713	-0.04231937
44	0x3df87806	0.12132268
45	0x3e603f6a	0.2189919
46	0xbf1b61f4	-0.6069634
47	0x3e3a0cae	0.181689
48	0xbf155002	-0.5832521
49	0xbeb63e00	-0.35594177
50	0x3e678b5f	0.2261176
51	0xbee0ac75	-0.43881574
52	0x3d5e0c01	0.054210667
53	0x3e055357	0.13020073
54	0x3eaae4ba	0.3337763
55	0x3dc92470	0.09821403
56	0xbe27607c	-0.163454
57	0x3e83d0ab	0.2574514
58	0x3db2ba78	0.08726972
59	0xbd6cade1	-0.05778301
60	0x3de79644	0.11307958
61	0x3cddc51b	0.027071526
62	0xbec077be	-0.37591356
63	0x3d531c5d	0.05154072
64	0x3db09693	0.0862247
65	0x3cab8125	0.020935604
66	0xbf0cae78	-0.5495372
67	0xbe6ec0bd	-0.23315711
68	0xbddb609e	-0.10711788
69	0xbc55dcd6	-0.01305314
70	0x3eb53823	0.3539439
71	0xbafbcff8	-0.001921176
72	0xbec4dab9	-0.38448122
73	0xbe88a40b	-0.26687655
74	0x3e2591c1	0.16168882
75	0x3e40964e	0.18807337
76	0x3b9c6a78	0.0047734343
77	0x3def3627	0.116802506
78	0x3ef5cf9b	0.48009953
79	0x3ecc0878	0.3985021
80	0xbe2a735f	-0.16645573
81	0xbd3161ff	-0.043306347
82	0xbdaf8d05	-0.08571819
83	0xbe1ffe7e	-0.15624425
84	0xbafea48b	-0.00194277
85	0xbe1f25a0	-0.15541697
86	0x3ec0b796	0.37640065
87	0x3e88f6ab	0.26750693
88	0x3e414314	0.18873245
89	0x3e9b7262	0.30360705
90	0x3e0848e2	0.13309053
91	0x3db1d9b7	0.08684104
92	0xbe16ffae	-0.14745972
93	0xbf2baddf	-0.6706218
94	0x3d804b5c	0.06264374
95	0xbd27bc7d	-0.04095124
96	0x3e8fc21b	0.28077778
97	0x3e19f291	0.15033938
98	0x3e5dbb0e	0.21653387
99	0xbe36fc73	-0.17869739
100	0xbe80b4b8	-0.25137877
101	0xbe952b47	-0.2913458
102	0xbf2f1ef3	-0.684066
103	0x3e724cac	0.2366206
104	0xbdb78e51	-0.089626916
105	0xbde905ef	-0.11378085
106	0x3e7051d6	0.23468718
107	0xbe811c60	-0.2521696
108	0xbea3fd2c	-0.32029092
109	0x3e164b99	0.14677276
110	0xbde2a3c3	-0.11066391
111	0x3d665acf	0.056238946
112	0x3eab29ec	0.3343042
113	0xbf0e7587	-0.5564808
114	0xbc819a08	-0.015820518
115	0x3e23b19e	0.15985724
116	0x3ed6b64f	0.41935965
117	0xbc6b1202	-0.014347555
118	0xbc89e106	-0.016830932
119	0x3e1c1a9e	0.15244529
120	0x3e2cad4b	0.16862981
121	0x3e6aaade	0.22916743
122	0x3eac723e	0.3368091
123	0x3d81a082	0.063294426
124	0x3cba9133	0.022774315
125	0x3c9d8ad9	0.019231247
126	0xbea9b247	-0.33143827
127	0x3eb65a35	0.35615698
128	0x3e8a66ca	0.27031547
129	0x3eec1d39	0.46116045
130	0x3e5b83c4	0.21436983
131	0xbe1ee2fa	-0.15516272
132	0x3eaab363	0.33339986
133	0xbe8e9c7e	-0.2785377
134	0x3e426594	0.18984061
135	0x3e5a3b58	0.213117
136	0x3e8bd5f7	0.2731168
137	0xbdc214bd	-0.09476612
138	0xbea3d21e	-0.31996244
139	0xbe1e3729	-0.1545073
140	0xbd75060e	-0.059820227
141	0x3e090f66	0.1338478
142	0x3dc77a6b	0.09740146
143	0xbd6b5774	-0.05745645
144	0xbed8e2c0	-0.42360497
145	0x3e898ab6	0.2686364
146	0xbe8d3c85	-0.27585235
147	0x3ed8719a	0.4227417
148	0xbe2cdc79	-0.16880979
149	0x3a3d6775	0.0007225194
150	0x3dab1b8b	0.08354863
151	0xbe208f0f	-0.15679573
152	0xbe7f21f1	-0.24915291
153	0x3b5f9ac5	0.003411935
154	0xbe0930f9	-0.13397588
155	0x3e3cf657	0.18453346
156	0x3e7f60c6	0.2493926
157	0xbeebe68d	-0.46074334
158	0x3dac2d3b	0.084070645
159	0x3ef6c71c	0.48198783
160	0xbdd2db54	-0.1029574
161	0x3e2a6557	0.1664022
162	0x3e631609	0.22176374
163	0xbe12d6ca	-0.14339748
164	0xbe952426	-0.29129142
165	0x3e22be24	0.15892845
166	0x3dc4a9ac	0.09602675
167	0xbe126326	-0.14295635
168	0x3f503595	0.8133176
169	0x3e3e7985	0.18601044
170	0x3d21fd6c	0.039548323
171	0xbe170531	-0.14748074
172	0xbddc305c	-0.10751411
173	0xbe77b261	-0.2418914
174	0x3ea5d7d5	0.3239123
175	0xbdbc3cca	-0.09191282
176	0x3dd8d218	0.10586947
177	0xbe3c5daa	-0.18395105
178	0x3e22b3b8	0.1588887
179	0xbeb6f551	-0.35734037
180	0x3e33beae	0.17553207
181	0xbeab9d54	-0.3351847
182	0xbe138c34	-0.14408952
183	0xbd6c9e44	-0.05776812
184	0x3f46495c	0.7745569
185	0x3e1a3649	0.1505977
186	0xbddae40a	-0.10688026
187	0x3debbdd5	0.11510817
188	0x3e695eaa	0.22790018
189	0x3c9a2d11	0.018820317
190	0x3da6a240	0.081364155
191	0x3e287907	0.16452418
192	0xbe9ac251	-0.30226377
193	0x3e97bf07	0.2963793
194	0xbd8bede8	-0.068324864
195	0x3e1a01fb	0.15039818
196	0x3dc9ba5c	0.09849998
197	0x3ee66351	0.44997647
198	0xbd80cf26	-0.062895104
199	0x3eb88c79	0.36044672
200	0xbe2f05bb	-0.1709203
201	0x3f0300c1	0.51173025
202	0x3d53c6af	0.05170315
203	0x3e912e8b	0.28355822
204	0x3e54296c	0.20718926
205	0xbdbb72d4	-0.09152761
206	0xbdd8570d	-0.105634786
207	0xbc177a8c	-0.009245526
208	0xbeadc101	-0.33936313
209	0xbf04885c	-0.5177057
210	0x3dc39d76	0.09551518
211	0x3e706d3b	0.23479168
212	0x3ed55ea8	0.4167378
213	0xbd945838	-0.07243389
214	0x3dc9cf79	0.098540254
215	0xbdbb317b	-0.09140297
216	0x3ea47625	0.32121387
217	0xbeb34439	-0.35012987
218	0x3e5f9934	0.21835786
219	0xbe955350	-0.29165125
220	0x3d1dc0a3	0.03851379
221	0x3c60ec34	0.01372819
222	0x3e406d60	0.18791723
223	0x3ec7e7a0	0.39043903
224	0x3d608e83	0.05482341
225	0xbe622e22	-0.22087911
226	0x3d403391	0.046924178
227	0x3eb26c38	0.3484819
228	0xbd9ca816	-0.07649247
229	0x3ca64622	0.020297114
230	0x3d7f1128	0.06227222
231	0x3e142902	0.14468768
232	0xbecd997c	-0.40156162
233	0x3eb81602	0.3595429
234	0x3cf00cdf	0.029303012
235	0xbe62f3af	-0.2216327
236	0xbe0c41fc	-0.13697046
237	0x3e282981	0.16422082
238	0xbdd12688	-0.102124274
239	0x3d762877	0.060097184
240	0xbea4331b	-0.3207024
241	0x3f29f7f0	0.6639395
242	0x3dbd9659	0.09257192
243	0xbd9f99e0	-0.07793021
244	0xbd4ee6c5	-0.050513048
245	0x3d9baa1f	0.076008074
246	0xbee1fb4b	-0.44137034
247	0x3eca5388	0.39516854
248	0x3eaa0244	0.33204854
249	0x3e7cc3a3	0.24684004
250	0x3c85d2b4	0.016335823
251	0xbd17f611	-0.0370999
252	0x3e78d8fa	0.2430152
253	0xbe16193e	-0.14658067
254	0xbe898ee5	-0.26866832
255	0x3e6aee7a	0.22942534

mlp_extractor.value_net.1.bias f4 [16]
0	0x3cfec9b4	0.031102039
1	0xbd00737c	-0.031360134
2	0x3d018246	0.03161838
3	0xbd0333fa	-0.03203199
4	0x3d034ef5	0.03205772
5	0xbd03844f	-0.0321086
6	0xbd05c9e0	-0.032663226
7	0x3c7dd51a	0.015492702
8	0xbd02d592	-0.031941958
9	0xbd020d54	-0.031750992
10	0xbcfc8cb8	-0.030828819
11	0xbd02c7f7	-0.031928983
12	0x3d01e636	0.031713687
13	0x3d003938	0.031304568
14	0x3d047db5	0.032346446
15	0xbd043991	-0.032281462

mlp_extractor.value_net.2.weight f4 [1, 16]
0	0x3d8ac81d	0.0677645
1	0xbe7038ed	-0.23459215
2	0x3da5161e	0.08060859
3	0xbeec0cf2	-0.46103626
4	0x3e9d311f	0.3070154
5	0xbed091f0	-0.4073634
6	0xbe2e1426	-0.16999874
7	0xbc613162	-0.013744684
8	0xbf021ddb	-0.50826806
9	0xbe66ea0b	-0.22550218
10	0xbe20330d	-0.15644474
11	0xbe8d29cc	-0.2757095
12	0x3e81d740	0.25359535
13	0x3dc1a416	0.09455125
14	0x3f0c11d3	0.547147
15	0xbf60237c	-0.87554145
