Aurora/gym/results/pcc_model_big_10_best.pt (torch, 38723 bytes, 10 tensors)

mlp_extractor.policy_net.0.weight f4 [64, 30]
000000 0d 2c a6 be 2a f5 e7 bd 30 9b 85 be a9 7c 6d be
       -0.32455483 -0.11326058 -0.2609496 -0.23192085
000010 cd ba d0 be 2c 02 c3 3d 15 f6 72 bd ea 09 2e be
       -0.40767518 0.095218986 -0.059316713 -0.1699597
000020 c2 3e 70 be f9 b6 3d bd 48 a9 28 3d 4c 92 94 3d
       -0.2346144 -0.046317074 0.041177064 0.072544664
000030 c3 5b 02 be b5 99 76 b9 b3 31 1b 3e 07 ae d0 3d
       -0.12730317 -0.00023517649 0.15155677 0.10189443
000040 aa 87 3d bd a3 45 0f 3d 00 57 0d be 9c df 31 bc
       -0.046271957 0.03497852 -0.13802719 -0.010856535
000050 17 fa 34 3c 0d 6b 28 bd 16 53 aa be 07 2a 3a be
       0.011045954 -0.041117717 -0.33266515 -0.18180095
000060 a5 25 52 be 9d ce b4 3c 17 7d 96 3e f5 15 56 be
       -0.20522173 0.022071177 0.2939231 -0.20906813
000070 ac 02 36 3e ac ae 50 be 06 c3 bb bc c3 81 33 bd
       0.17774457 -0.20379132 -0.022920143 -0.043824922
000080 41 85 a2 bd 64 8c a8 3e 7d 6a 9b 3d 77 ec 6f 3e
       -0.079355724 0.3291961 0.075886704 0.23430048
000090 61 1b 81 bd 81 5c de 3d 24 5c 01 bd a9 87 ab 3e
       -0.0630405 0.108574875 -0.031582013 0.33501938
0000a0 49 61 b1 3e 54 a8 d9 3d 52 06 b2 be 13 a4 12 be
       0.34644535 0.10627809 -0.34770447 -0.14320402
0000b0 dc 1b 77 3c 9d 40 d8 3c 65 75 d3 3e 24 a4 bb bc
       0.015082326 0.026397998 0.41300502 -0.022905417
0000c0 ce b3 7b bd 62 b5 1f bc f8 62 03 3e a5 c4 96 3d
       -0.061450772 -0.009747835 0.12830722 0.07361726
0000d0 5c 8d 76 3e 19 7f 83 be 95 42 c7 bd 4c 23 fd bd
       0.24077362 -0.25682905 -0.097294964 -0.12360248
0000e0 9e ca 5e 3e ab f3 d9 3d 59 1c 23 be 32 04 28 3e
       0.2175698 0.10642179 -0.15928783 0.1640785
0000f0 47 2f 40 be a5 92 0c 3e 5f 84 64 be 82 fb 4d be
       -0.18768035 0.13727815 -0.2231612 -0.20115474
000100 0e ee d1 bd 02 8d 09 be 0f d5 82 bd 30 9e 79 3d
       -0.102504835 -0.13432696 -0.06388294 0.060941875
000110 53 73 18 be b7 0d 7f be 88 de 8b bd ab 6e a6 3d
       -0.14887743 -0.24907576 -0.06829554 0.08126577
000120 6d f1 9c be 6d 87 36 3e 12 42 ec bd 25 5a 2c bc
       -0.30652943 0.17825098 -0.115360394 -0.010519539
000130 a9 ea 21 3e e6 ee 24 be d2 b3 78 be dc 27 a7 bd
       0.15812172 -0.16106758 -0.24287346 -0.081618994
000140 31 b6 d4 bd 28 9e d1 bc 44 a7 7e be 61 dc 6b 3d
       -0.10386313 -0.02558811 -0.24868494 0.057583217
000150 59 61 72 3e c0 26 72 3b 60 b9 5d 3d 80 d2 93 bd
       0.23669948 0.0036949366 0.054131866 -0.07217884
000160 73 0b 3b 3e 43 73 b3 3d 18 57 d6 be 4d c1 03 be
       0.18266086 0.08762219 -0.41863322 -0.12866707
000170 44 83 34 3d b7 4d c8 3d 4f 4a dd 3d a1 f8 2e be
       0.044070497 0.09780448 0.10805189 -0.17087032
000180 9f 5e 8f bd 70 d2 53 3d 7d c5 ac bd 81 74 52 3e
       -0.070004694 0.05171436 -0.084361054 0.20552255
000190 f7 e5 cd bd 2d 77 1f be 89 ea 30 3e 6e 0f 4b 3d
       -0.10053628 -0.15572806 0.17276968 0.04957526
0001a0 e2 27 e5 bd 6f 83 2e be 50 5c b2 3e 09 24 bc 3d
       -0.11189248 -0.17042325 0.34836054 0.09186561
0001b0 f1 cd 15 bd e6 4e 33 be a2 cd 9e bc 96 50 2a 3d
       -0.036573354 -0.17510566 -0.019385163 0.04158076
0001c0 5a 5c 6a be 1d b5 b8 3b f0 fd 94 3d 47 58 bb 39
       -0.22886792 0.0056368248 0.07274997 0.0003573319
0001d0 5d 2f 31 be 45 02 3a 3d ce 10 29 3e e0 5c 0e 3d
       -0.17303224 0.04541232 0.16510317 0.03475654
0001e0 e1 37 c8 bd 80 6b 24 3d f8 39 20 bd a5 62 7f be
       -0.09776283 0.040141582 -0.039117783 -0.24939974
0001f0 29 98 3f bd 4d 7c b0 be 7d 65 d6 bd 1c bd 27 be
       -0.04677597 -0.34469834 -0.10468576 -0.16380733
000200 bc b8 84 3c 9a 01 2d 3d 93 60 08 be 2c c3 34 bd
       0.01620137 0.042237855 -0.1331809 -0.044131443
000210 81 7e a6 bd 1b de f0 3d de fe 4c 3b 9b 37 11 3c
       -0.081295975 0.11761113 0.0031279842 0.008863355
000220 7b 2c 0c 3e 30 97 6d be bf fe ef bd e9 96 ce 3d
       0.13688843 -0.23202205 -0.11718511 0.100873776
000230 c8 f9 5f 3e de dd 0b 3e 99 f2 27 3d af 0a 65 3c
       0.21872628 0.13658854 0.041002844 0.013979598
000240 1a f0 62 3e 1a 28 8f 3e 35 98 8d 3d ec 88 20 3e
       0.22161904 0.27960283 0.06913797 0.15677232
000250 99 6c 96 3d 39 19 13 be c7 00 21 bd 0a b1 92 be
       0.07344932 -0.1436509 -0.039307382 -0.28650695
000260 97 9d e9 bd 8f 25 16 3d 07 fc 8d be 71 31 92 bd
       -0.11407011 0.036656912 -0.27731344 -0.071383364
000270 2a bc a1 bd 82 ea 46 3e 8f 44 88 3d 67 e9 b9 bc
       -0.078972176 0.19425395 0.066537015 -0.022694303
000280 55 3b c7 3d af b9 27 bd b6 fe 16 3d 34 b9 01 3d
       0.097281136 -0.040948566 0.036864005 0.031670764
000290 9e 44 65 3d 31 82 f8 bc 1a e8 96 bd 3a 3d a5 3d
       0.05597364 -0.030335518 -0.073684886 0.08068319
0002a0 ac 02 bf bd 0a a4 8e bc a5 27 da 3d f0 38 25 3e
       -0.093266815 -0.017412204 0.10652093 0.16135001
0002b0 ab 08 d2 3b 9c cf 3a 3e f1 60 e9 bc 7b d3 24 3d
       0.0064097247 0.18243259 -0.028488608 0.040240746
0002c0 2e 08 6e 3e ec 71 9a bc fa 7f 49 be 19 09 12 3f
       0.23245308 -0.01885315 -0.19677725 0.5704513
0002d0 c9 bb fc 3d 18 49 31 be 59 59 1e bb da eb 8c 3d
       0.12340505 -0.1731304 -0.0024162142 0.068809226
0002e0 d8 a3 84 bd da 69 b4 be 95 9c af bd bc 24 e9 3d
       -0.06476563 -0.35237008 -0.085747875 0.1138396
0002f0 06 ea 91 3c bc 69 5f be 95 c8 76 be c9 ae 17 3d
       0.017811786 -0.21817678 -0.24099953 0.037031922
000300 68 16 88 be c9 fc 9e 3d 91 60 9b 3e b4 58 99 3e
       -0.26579595 0.07763059 0.30347112 0.29950488
000310 9e e5 89 3a 85 d1 81 bd a3 26 37 3e 24 45 1f be
       0.0010520702 -0.06338791 0.17885832 -0.15553719
000320 c0 5f 7f 3e 2e 99 d2 3c f3 59 28 3d 7a 4f 3d 3d
       0.2493887 0.025707807 0.041101407 0.046218373
000330 f7 3c 8d 3e ff 21 9b bd 55 15 5a 3d 2d 89 db be
       0.27585575 -0.075748436 0.053243 -0.42878094
000340 b8 83 77 3c c7 8b 6c 3d f5 40 5c 3e 9f aa df bd
       0.015107088 0.05775049 0.21509154 -0.10921215
000350 88 17 64 3d c0 d7 27 3e 59 31 25 bd 2a 02 38 3e
       0.055686504 0.16390896 -0.040330265 0.17969576
000360 b8 90 90 3e 3a 9d 51 bd 77 4f 18 be 4a f7 8a bd
       0.28235412 -0.051175334 -0.14874063 -0.06785448
000370 71 ec 6d 3d 56 53 8c 3e ef 01 ee bd de f0 7c bd
       0.058086816 0.2740733 -0.116214626 -0.061753146
000380 1d 91 bd be ab 1a 0e 3d d3 0e 4e 3e f0 6e 2a 3e
       -0.37024775 0.0346934 0.20122842 0.16643882
000390 a9 dd 06 3e 4f 68 fd bc 1b 42 06 bf 31 e3 9f 3e
       0.13170494 -0.030933527 -0.5244462 0.3122802
0003a0 57 b3 69 be 7a fa 97 3b 69 4f 2f 3e 06 8c 81 3e
       -0.22822319 0.0046380134 0.17120136 0.25302142
0003b0 e8 ff 67 3c 62 97 02 be 20 16 04 3e d6 aa 34 3e
       0.014160134 -0.1275306 0.12899065 0.17643294
0003c0 ed 9f fe bd f3 38 74 3d fb 53 81 3e 55 ff 2c be
       -0.12432847 0.059624624 0.25259385 -0.16894276
0003d0 0f 93 4f 3d b0 be 3a 3e 86 59 a7 be aa fa 47 be
       0.050677355 0.18236804 -0.32685488 -0.19529215
0003e0 d8 06 48 be e1 76 90 3e fb 29 77 be 04 af d6 bc
       -0.1953386 0.28215697 -0.24137108 -0.0262065
0003f0 db c2 5d bd 55 c1 0d 3d ff 9f a6 3e c3 d4 25 3e
       -0.054140907 0.034608204 0.32543942 0.16194443

mlp_extractor.policy_net.0.bias f4 [64]
000000 03 94 67 39 e7 89 4a 3a 05 97 e0 38 f2 21 f9 b9
       0.00022085015 0.00077262375 0.00010709282 -0.00047518272
000010 4f 6b 51 ba ef 15 ba b9 9b d7 56 b9 37 3c 0a b9
       -0.00079887075 -0.00035493026 -0.0002048895 -0.00013183137
000020 b6 00 13 39 71 5a 88 3a 89 7b d2 38 61 23 af 39
       0.00014019277 0.001040293 0.000100365905 0.0003340496
000030 6d be c2 39 54 2b 0c ba e7 4c 83 b9 15 e8 c5 39
       0.00037144442 -0.00053470326 -0.00025043564 0.00037747683
000040 51 27 18 38 24 a7 27 b9 57 9d e6 39 cd 53 63 3a
       3.627624e-05 -0.00015988626 0.00043986246 0.000867185
000050 f9 e7 ad b9 92 a3 aa b9 e2 d2 fe 38 1a 7b 31 ba
       -0.00033169964 -0.00032546796 0.00012150944 -0.0006770358
000060 87 48 bd b9 cd 09 45 b9 2f 97 3d ba 7b b7 d4 39
       -0.00036102926 -0.00018791035 -0.0007232306 0.00040572495
000070 77 9c ad 38 46 0e a0 b9 86 a5 ad 39 df b3 b3 b8
       8.278427e-05 -0.00030528213 0.00033120456 -8.568889e-05
000080 d5 1d 6e b9 0a 52 35 3a 5a c7 94 38 bd 46 dd 39
       -0.00022708562 0.0006916827 7.094322e-05 0.0004220511
000090 4d f2 0d 39 bb 6b d9 b8 3c d5 cb b8 e5 93 9a b9
       0.00013537072 -0.00010367433 -9.719512e-05 -0.0002948336
0000a0 12 e4 dd 39 e1 65 06 ba 7f 5c be 39 0e 7e c2 b9
       0.0004232233 -0.00051268755 0.0003630854 -0.00037096482
0000b0 11 28 b7 b9 0b 4b 0c ba bb 86 40 ba a1 14 3c ba
       -0.00034934332 -0.00053517584 -0.0007344295 -0.0007174705
0000c0 60 f9 e2 38 6f 59 d1 38 6e e1 96 b8 43 bb e1 39
       0.000108229695 9.982555e-05 -7.194547e-05 0.00043054865
0000d0 43 b1 70 ba 3b 76 5a 3a 8b c2 85 39 b9 35 3c 3a
       -0.00091816875 0.0008333658 0.00025512683 0.0007179636
0000e0 15 37 7f b8 a2 54 3d 38 0e a6 09 ba 88 bb 4a ba
       -6.0848037e-05 4.5139932e-05 -0.00052508793 -0.0007733633
0000f0 0f d2 aa b9 d3 60 eb b8 c4 e3 6f ba 8c 2f 0c b8
       -0.00032581433 -0.00011223708 -0.0009151066 -3.3422883e-05

mlp_extractor.policy_net.1.weight f4 [32, 64]
000000 bf ef 32 be 70 b0 8d bd 96 2f ee bd b3 2e 95 bc
       -0.17474268 -0.069184184 -0.1163017 -0.018210744
000010 8c 54 9f be 43 e0 10 be 1e e9 1e be 2a cf 4e 3d
       -0.31119192 -0.14148049 -0.15518615 0.050490536
000020 37 ce 38 be ae 2f 37 be 94 31 12 3e cb 5a 09 be
       -0.18047415 -0.17889282 0.14276725 -0.13413541
000030 8f 1f a6 3d 38 9e 27 be 62 37 de bd 32 f7 e2 3c
       0.08111488 -0.1636895 -0.10850407 0.027705763
000040 0b 60 94 3d ff 87 53 be a3 8a 46 3c 8d 2f 5b bc
       0.07244881 -0.20657347 0.0121180145 -0.013378036
000050 32 fd 14 be 6a 91 36 3d 7a ec 28 3e 61 1e 24 3e
       -0.14549711 0.04457227 0.16496459 0.16027214
000060 4b 6a 47 3e c4 46 be 3e 3d 99 38 3d cb 16 57 3d
       0.19474141 0.37163365 0.045068014 0.05251197
000070 50 35 1c bf b4 b5 8f bd 37 9d a8 3b 3b 42 07 be
       -0.6101885 -0.07017079 0.0051456946 -0.13208859
000080 1f d2 ad bc 3b f3 eb bd 75 ec bb be e5 55 c6 3e
       -0.021218358 -0.11521002 -0.3670384 0.38737407
000090 95 8e 84 bd 53 77 3d 3d bc aa ac bd 5a 0d 14 3d
       -0.06472508 0.046256375 -0.084310025 0.036145546
0000a0 e2 8b 82 3d 04 e0 e1 bd d2 6e 6f 3d 53 a6 95 3d
       0.06374337 -0.11029056 0.058455296 0.073071145
0000b0 d1 be 98 3e 71 05 00 bd 6d 29 c6 be 18 0b 9f 3e
       0.2983308 -0.03125519 -0.3870348 0.3106315
0000c0 95 fe 77 be b1 f1 8c 3e d0 a3 06 3e 2d 91 c8 3d
       -0.24218209 0.27528146 0.13148427 0.09793315
0000d0 d0 59 44 be 35 bf 09 3d d3 6a 42 be 66 11 d7 3a
       -0.19174886 0.033629615 -0.18986063 0.0016408383
0000e0 0f 8a 48 bd 81 ea 2f bd 03 e4 0b 3d 67 4d 0d 3e
       -0.048959788 -0.04294825 0.034152996 0.13799058
0000f0 04 f7 8f bd 3b 65 a5 bd 4d 3d b5 3d 9a 49 90 3d
       -0.07029536 -0.08075949 0.08849583 0.070452884
000100 8c 98 1e be 62 04 a4 be e4 ed 49 bd 70 cf 0e bd
       -0.1548788 -0.32034594 -0.049299136 -0.034865797
000110 ed 6e 5f bd 46 f0 ae be c0 a4 2f bc ed b6 75 3e
       -0.054549146 -0.3416769 -0.010720432 0.23995562
000120 e9 ac 6f 3e a6 9c 7a 3e 55 b3 22 3e f6 6d 0a 3e
       0.23405804 0.24473819 0.15888722 0.1351851
000130 01 82 68 3e 8f 50 89 3d 4b 91 9a 3e 84 ed 2b 3d
       0.22705843 0.067048185 0.30188975 0.04197456
000140 2e b5 31 be 64 b2 dd bd 3f 99 03 bd 4e 8c 47 3d
       -0.17354271 -0.10825041 -0.03212857 0.04871779
000150 92 9e 33 3e a6 62 8c 3e ab 9d bc 3d cc 62 e8 3d
       0.17540959 0.27419013 0.0920976 0.11346969
000160 73 89 4c bd 9c 95 57 3d 31 1b b0 be 06 5d 17 be
       -0.04993577 0.052632913 -0.34395745 -0.1478158
000170 b5 64 a0 3c 3d 52 d5 bd 80 64 f5 bd 80 9b 37 3e
       0.01957927 -0.10416076 -0.119820595 0.17930412
000180 46 0c 38 3e 1a 19 d8 3d 78 05 24 be 7a 08 5b 3d
       0.17973432 0.10551663 -0.16017711 0.05347488
000190 c1 10 74 3e 02 71 41 3e cb 62 82 bd 27 a2 8a be
       0.23834516 0.18890765 -0.063664995 -0.27076837
0001a0 73 51 07 be e4 22 cc 3c c5 c8 d9 3d 7c 58 b3 be
       -0.13214664 0.02491898 0.10633997 -0.35028446
0001b0 01 96 0d 3d 9e 77 65 bc e2 29 07 3e f5 d1 15 3e
       0.034566883 -0.01400557 0.13199571 0.14630874
0001c0 fa 1f fa 3d 90 1e 13 3e 41 f5 1d be 9c a5 40 be
       0.1221313 0.14367127 -0.15425588 -0.18813175
0001d0 71 d6 11 3e b1 eb 81 be e1 8e 06 be 08 a2 4f be
       0.14241959 -0.2537513 -0.13140441 -0.20276654
0001e0 a3 f1 8b bc 51 bd d4 3d 7a 05 d5 3e cf a4 0e 3e
       -0.017082995 0.10387672 0.4160574 0.13930057
0001f0 84 c3 a2 3e 7e ac d5 bd 74 75 0a be c4 cf b6 bd
       0.31789792 -0.10433291 -0.13521367 -0.08926347
000200 b7 be 3c 3d f2 0c 03 be 58 d3 57 3e cb fa c7 bc
       0.046080317 -0.12797907 0.21076715 -0.02441158
000210 26 4c 94 3e 90 1d 64 3d 20 8e 97 bd c9 1c 0b 3c
       0.28964347 0.055692255 -0.07400155 0.00849075
000220 1a 7b 84 be cf 51 52 3d b1 a1 a0 3d 0f b6 0c be
       -0.2587517 0.05134755 0.0784334 -0.13741325
000230 de 32 72 bd 6e 55 84 bd 6d b4 66 3d 3b 4a ef 3d
       -0.059130542 -0.06461607 0.05632441 0.1168408
000240 4c 66 5e 3e cc 1f 3c bd 90 3c af 3e a8 96 ce bd
       0.2171871 -0.04592876 0.34225893 -0.10087329
000250 ca e5 03 be 3a 00 c3 bd 24 57 bc be 92 e6 39 be
       -0.12880626 -0.095215276 -0.36785233 -0.18154362
000260 65 f3 79 be 98 70 6c be 81 dd 60 bd 8d 70 69 3e
       -0.24409254 -0.23089826 -0.054898743 0.22796841
000270 0b 28 37 be c8 3f 5e be ad 53 1f 3e 49 81 93 be
       -0.17886369 -0.21704018 0.15559264 -0.28809574
000280 3c 90 3f bd 4e c9 5f 3e 4d e2 15 3e df aa bc 3d
       -0.046768412 0.21854135 0.14637108 0.092122786
000290 12 e1 3a 3d 2e a7 89 be 25 02 a7 bd 64 14 ae be
       0.0456248 -0.2688536 -0.08154706 -0.33999932
0002a0 9d d5 25 be 1d 8d b4 be e0 60 0f 3d 2d d6 0f 3e
       -0.16194768 -0.3526391 0.035004497 0.14046545
0002b0 b3 6a 6e bd 26 de 18 be 3a 4d 98 3d 40 b0 be 3d
       -0.058207225 -0.14928493 0.07436605 0.09310961
0002c0 00 33 83 be de ec c4 3d 26 f3 cb bc df 90 00 bd
       -0.25624847 0.09615491 -0.024896216 -0.03138816
0002d0 7e ca 49 3d 64 8c a0 3c 39 18 a4 3d 0a 2f d8 bc
       0.049265377 0.019598193 0.080124326 -0.026389617
0002e0 f5 ff bc be c9 35 26 3d 31 cb dc 3e 23 5b aa bd
       -0.3691403 0.040578637 0.43123773 -0.08318164
0002f0 24 17 58 3e 5e a0 78 bd ff 36 3e bd ed 59 5f 3e
       0.21102577 -0.060699813 -0.046439167 0.21811648
000300 47 6e 87 be 39 fa 05 3b 35 41 c8 3e b1 ba da bd
       -0.26451322 0.0020443334 0.3911225 -0.1068014
000310 d8 16 60 3d b0 61 28 bc 03 32 3b 3e ba 34 ef 3c
       0.054709285 -0.010277197 0.18280797 0.029199947
000320 3b 77 01 bc 28 40 a0 bd 33 21 8d 3d 56 ee 23 3b
       -0.007901962 -0.07824737 0.06891098 0.0025013885
000330 e5 2d a4 3e 4f d1 58 3e 63 d0 b3 be c3 67 1c be
       0.32066265 0.21173595 -0.35119924 -0.15273957
000340 08 00 ba bd 82 bd 11 3d 0e 3e 35 3c 98 70 af 3d
       -0.09082037 0.03558112 0.011062158 0.085663974
000350 26 b8 e6 bd 23 bd 5e 3e 01 0c dc 3d ba ef 2a 3e
       -0.11265592 0.21751837 0.10744477 0.16693011
000360 9a e6 14 be 3f 03 57 be 54 62 f4 3d 4e 6f 76 be
       -0.14541093 -0.20997332 0.11932817 -0.24065897
000370 38 7d cf 3d 03 9e 98 be bb dc d8 bd bc 85 b1 be
       0.101313055 -0.29808053 -0.10588976 -0.34672344
000380 df 7f 6b 3d 9b 67 3c be 06 b4 24 3e 18 a1 8d 3c
       0.057494994 -0.18398897 0.16084298 0.01728873
000390 d0 f7 55 bb 44 68 18 3e 09 fd 6f 3e 25 d2 3e be
       -0.0032648928 0.14883524 0.23436369 -0.18634851
0003a0 c7 44 2e be 25 23 46 3e 71 50 8d 3e 59 f1 94 3d
       -0.17018424 0.19349344 0.27600434 0.07272596
0003b0 e8 c0 e0 3d 60 15 66 bc 6d cd 0b 3d 13 e0 59 3c
       0.10974294 -0.014043182 0.034131456 0.013298052
0003c0 8d d0 03 bd d6 ce 94 3d 60 1e 4a be 6c 4e 26 3d
       -0.03218131 0.07266013 -0.1973815 0.040602133
0003d0 f0 2f a4 be 08 46 cd 3d 0a 09 3d 3e e6 c8 6e 3e
       -0.32067823 0.10023123 0.1846048 0.23318824
0003e0 bf fb 4e 3e e8 69 93 3e 11 26 40 3e 5c 04 13 3d
       0.20213221 0.28791738 0.18764521 0.03589283
0003f0 12 5e c0 be af 03 3b be 9e 69 c0 3d c4 8c d3 3d
       -0.3757177 -0.18263124 0.09395145 0.10329583

mlp_extractor.policy_net.1.bias f4 [32]
000000 d5 c1 1a 38 65 65 a1 b9 06 8b 86 39 bf 15 7f 38
       3.689698e-05 -0.00030783858 0.00025662052 6.081699e-05
000010 2a 57 93 3a a2 d1 5b 39 63 7f 76 38 9e 44 d6 39
       0.0011241187 0.00020963562 5.876961e-05 0.00040868385
000020 75 9d c6 39 e2 75 69 ba c0 78 70 3a 48 20 0b ba
       0.00037882818 -0.00089058105 0.00091732666 -0.00053072395
000030 67 23 77 b9 04 91 05 3a 5a c7 cc b9 df a9 ff b8
       -0.00023568944 0.00050951564 -0.0003905844 -0.000121909885
000040 bc bc 0d ba eb 14 49 38 07 4e 1d 3a d1 61 de 39
       -0.0005406847 4.7941616e-05 0.00060007017 0.0004241602
000050 97 c2 0e 39 2c 16 28 ba 45 c7 04 ba 24 ab fb b9
       0.00013614666 -0.0006411995 -0.0005065094 -0.0004800196
000060 b7 31 00 ba c5 aa c9 39 f3 ba e3 b9 f2 e3 56 b9
       -0.00048902206 0.0003846494 -0.00043436102 -0.00020493547
000070 6a 12 c8 38 50 72 c0 39 ea cd 47 b8 1a 31 fa b8
       9.540173e-05 0.00036706263 -4.763707e-05 -0.00011930075

mlp_extractor.policy_net.2.weight f4 [1, 32]
000000 6b 36 95 bc 2d 5f 2a 3e 5d 7b 0b be 00 24 04 bd
       -0.018214425 0.16637869 -0.13621278 -0.032260895
000010 e7 b0 26 bf 2f 21 dd bd a3 65 09 bd 33 a0 54 be
       -0.6511368 -0.10797345 -0.033544194 -0.20764236
000020 2f 90 4c be fb 8c fb 3e 65 2c 03 bf ab 85 91 3e
       -0.19976877 0.49130997 -0.51239616 0.28422293
000030 aa 4e ed 3d f7 38 8b be 5d f7 4a 3e c5 5b 82 3d
       0.115872696 -0.27191898 0.19820924 0.0636516
000040 3b f9 90 3e b9 55 ba bc 29 5a a7 be 1a 0a 6a be
       0.28315148 -0.022745954 -0.32685974 -0.22855416
000050 04 f7 9b bd ae b4 b4 3e 0f 7d 89 3e 57 18 7e 3e
       -0.07615474 0.35294098 0.26853225 0.24813972
000060 e2 87 85 3e 6d b5 4c be 30 81 6d 3e 04 c6 dc 3d
       0.26080233 -0.19991083 0.23193812 0.10779956
000070 90 8c 72 bd 3c 53 45 be ea 92 b6 3c ee 5e 6d 3d
       -0.059216082 -0.19270033 0.022286851 0.05795186

mlp_extractor.value_net.0.weight f4 [64, 30]
000000 78 be 05 3e d0 7b b6 bb 9c 07 48 bc e6 4e 38 be
       0.1306094 -0.005568959 -0.0122088455 -0.17998847
000010 f0 e0 69 3e 92 5e f1 be 23 46 1b 3e 03 4c a5 bc
       0.22839713 -0.47142464 0.15163474 -0.020177847
000020 6b 8a 98 be 37 4e ad bd 94 81 e5 be 03 9c 7f 3e
       -0.29793105 -0.08462184 -0.44825423 0.24961857
000030 bd 24 bc 3d 4b 9a ed bd d9 f0 26 3d fa 0e b6 be
       0.09186695 -0.11601695 0.040757034 -0.355583
000040 1a c3 0b be 2e 74 b8 bd d8 02 70 bd 34 29 ae bd
       -0.13648644 -0.090065345 -0.058596462 -0.085039526
000050 81 9c 0f 3e f9 d5 8f 3e 6b 29 08 be 6a 6f 05 3d
       0.14024545 0.28092936 -0.1329705 0.032576956
000060 7e a4 b8 3e 96 28 71 3e b5 76 81 3e 80 62 fa bd
       0.36062998 0.23550639 0.2528588 -0.12225819
000070 23 e7 2f 3c bb 9a 24 3d 5b 98 bb bd 5e a2 4c be
       0.01073626 0.040186625 -0.09159919 -0.19983813
000080 ce dc db 3c d0 ab 13 be ee 4f 9a be 5d e8 6c 3e
       0.026838686 -0.1442101 -0.30139107 0.23135515
000090 a5 89 bc 3b 68 6f 60 be 56 fd 72 3d 5a 56 81 bc
       0.005753713 -0.21917498 0.05932363 -0.015788246
0000a0 18 a2 28 3d 7f 87 17 3d d1 48 b5 3e a0 fc 38 3e
       0.04117021 0.036994454 0.35407117 0.18065119
0000b0 df 05 31 3e 2b 2d b1 be d9 ad 5d be 27 41 9c 3d
       0.17287396 -0.34604773 -0.21648349 0.07629614
0000c0 20 77 7b be 3b bd 23 be 92 2e 30 3e 58 b9 b6 3d
       -0.24557161 -0.15990154 0.17205265 0.0892207
0000d0 7d d4 0a bf 76 0d 94 3e 73 2d d3 bd 3f 28 08 bc
       -0.5423048 0.2891652 -0.10311403 -0.008310377
0000e0 44 c6 4a 3e 40 22 27 3e 87 ee 93 3d 11 22 63 3d
       0.19802195 0.16321659 0.0722323 0.05545241
0000f0 07 f7 0a 3e 39 eb 6a bd 53 a1 23 be f7 0b 87 3d
       0.13570796 -0.057353232 -0.15979509 0.06594079
000100 ec 9e ce bc c7 2d 00 bc 98 73 5e be 66 6d d3 bd
       -0.025222264 -0.007823414 -0.21723783 -0.103236005
000110 92 b4 4b be 2c 78 27 3e 14 22 bb 3c 67 44 34 be
       -0.19893101 0.16354436 0.022843398 -0.17604218
000120 82 37 0c 3c 49 31 5c 3e 09 ba 3e 3e fe ee c9 bc
       0.008558156 0.21503176 0.18625654 -0.024650093
000130 86 9d 84 3b fb 99 a9 3d fe a0 0a bd d3 87 a0 bd
       0.0040470986 0.082813226 -0.03384494 -0.078384064
000140 2c ab 82 be 4a 6b d3 bd 32 07 74 3d 7b 54 56 bd
       -0.2552122 -0.10323198 0.059577174 -0.05232666
000150 99 46 c7 be c3 3a f7 3d 4d 6c c0 3d 7f 7c 1b be
       -0.3892105 0.12071755 0.09395657 -0.1518421
000160 d3 dc 3b 3e 40 f9 b9 be 05 ea ef bc 5c 2a 66 3d
       0.18345957 -0.36322975 -0.029286394 0.05619274
000170 56 4d c4 bd 2b 1c 88 be 9d 9c 21 3d a6 6b 6f be
       -0.09585063 -0.2658399 0.039456 -0.23380908
000180 2f 07 b1 be db c3 f0 bb 57 39 60 bd 05 0c 46 be
       -0.34575793 -0.0073475665 -0.054742184 -0.19340523
000190 23 dd 21 3e 19 93 83 3c ad b4 29 be 31 7b 14 bd
       0.15807013 0.016061353 -0.16572829 -0.036250297
0001a0 ef cf e0 bd 49 cd 7d bc 89 a6 8b 3d 84 8a d4 bd
       -0.1097716 -0.015490838 0.068188734 -0.10377982
0001b0 1d e5 ac bc ed 67 56 be 46 40 24 3e 05 0f 39 be
       -0.021105343 -0.20938082 0.16040143 -0.18072136
0001c0 16 91 9b 3e 3b 57 e9 3e bc e5 f8 3c e7 c4 49 bd
       0.3038413 0.45574364 0.030382983 -0.049260046
0001d0 8c 7a 71 3d f5 b3 0d 3e ce 2a 50 be be 41 8e 3d
       0.05895476 0.1383818 -0.20328829 0.06946133
0001e0 07 bc bb bd 87 0d 56 3d 44 97 1f 3e 8a bb b5 bc
       -0.09166723 0.052258994 0.15585047 -0.022184152
0001f0 10 57 d3 bd 92 b6 77 3d d4 19 05 3e 3a c5 6c be
       -0.1031934 0.060476847 0.12998134 -0.23122111
000200 1c f0 17 3e 2e 6f 22 3e bd f9 50 3e 7d b9 51 3d
       0.14837688 0.15862724 0.20407768 0.051202286
000210 de 0f 6c be fe d8 c9 be 94 e7 3a 3e 74 4d aa bd
       -0.23052928 -0.39423364 0.18252403 -0.08315554
000220 cd d0 a7 bd 72 dc 0e be 54 d7 09 bd 0b ce 46 3c
       -0.081941225 -0.1395128 -0.03365262 0.012134085
000230 13 1b 74 be 4b b4 81 3e 23 f4 72 be 63 b9 92 3e
       -0.23838453 0.25332865 -0.23725943 0.28657064
000240 cb 04 20 3b 98 60 fe bd 0e 45 a0 bc df 49 bf bd
       0.002441692 -0.124207675 -0.019564178 -0.09340262
000250 68 2d 28 3e 42 b5 e3 3d d9 70 a8 3e 22 93 93 3b
       0.16423571 0.111185566 0.32898596 0.0045036236
000260 9e 03 67 be 72 52 76 be 20 25 e9 3e ff 43 75 3d
       -0.22559974 -0.24054888 0.45536137 0.0598793
000270 4d d6 87 be 30 8a 1e bd 72 fa 6d 3d b5 96 6a 3e
       -0.26530686 -0.038706005 0.05810017 0.22909053
000280 c1 dd a1 3e 1d ed be 3b 79 ac 64 3d b5 78 0a 3e
       0.31614497 0.005826606 0.055828545 0.13522609
000290 ce f7 fc 3e e1 3c 26 bd f3 40 89 bc d9 89 8d 3e
       0.4940781 -0.040585402 -0.016754603 0.27644232
0002a0 62 33 51 3d 2e 71 82 be de e9 76 bd 1b 97 8f 3d
       0.051074393 -0.25476974 -0.060281627 0.07011243
0002b0 b7 8d ba bc 5a 0b d4 bb fa 2c 1b 3e af e9 0d 3e
       -0.022772653 -0.00647108 0.15153876 0.13858674
0002c0 61 a3 9e bb 19 d2 0f be 37 1d e4 3d 86 a1 b1 bb
       -0.0048412536 -0.1404499 0.11138385 -0.0054208664
0002d0 29 ad 13 be 7d d1 00 3d cd 1e 83 bd bd cc a1 3d
       -0.14421524 0.031449784 -0.06402359 0.07900379
0002e0 6e 54 96 be fa 9f 88 bd 9d f1 81 be ec 90 b1 be
       -0.2936129 -0.06671138 -0.2537965 -0.3468088
0002f0 95 fa 35 3e 95 20 0d bf db 9c ac bd 18 fb 8d 3d
       0.1777137 -0.5512784 -0.08428355 0.06932658
000300 58 16 b2 3d d5 64 1d 3e 02 45 40 3e d9 92 29 3b
       0.08695668 0.15370496 0.18776324 0.0025874882
000310 3a ce aa bd f8 9d bf be 31 7a 87 3e 86 40 01 3e
       -0.08340116 -0.37425208 0.26460412 0.1262227
000320 67 32 1b 3e f3 f2 85 3d 57 00 7f 3c 86 ce 13 3e
       0.15155946 0.065404795 0.015564046 0.14434251
000330 3e 69 20 3e 73 f7 63 3e d2 96 03 be f1 8a 6e 3d
       0.15665147 0.22262363 -0.12850502 0.058237974
000340 04 99 33 bc 57 7c 09 be 25 20 8f 3d a5 25 8a be
       -0.010961775 -0.13426338 0.06988553 -0.26981845
000350 76 c7 43 3e cb 91 e8 3a 41 03 04 be 5f 3e 51 3e
       0.19119057 0.0017743645 -0.12891866 0.20433949
000360 42 9a 89 3e 60 c5 87 be 24 bf cf bd 44 8d 6e be
       0.26875502 -0.26517773 -0.10143879 -0.23296076
000370 4a 38 ab 3d 32 10 d9 3d e8 b5 e2 bd d8 de 6c be
       0.08360346 0.10598792 -0.11069852 -0.23131883
000380 db 8c 7c be 6f 2e 3c be 24 f9 19 be ad 4f f9 3e
       -0.24663107 -0.18377088 -0.15036446 0.486936
000390 4f 9d 62 3e 50 09 8f 3c 09 ff 8b 3e 80 90 55 3c
       0.22130321 0.017460495 0.27343014 0.01303494
0003a0 da 00 23 bc b4 b8 9f 3e 6b be 6b 3e 41 f2 b0 be
       -0.0099489335 0.31195605 0.23021857 -0.34559825
0003b0 3c 13 16 3a 0a d9 f9 bd 27 8f 9d 3c ff 8d 5d 3e
       0.0005724912 -0.121996 0.0192333 0.21636198
0003c0 c5 af db 3d 45 14 41 bd da f0 11 3d 6e 47 a3 be
       0.10726885 -0.04713847 0.035630085 -0.31890434
0003d0 ed ee ac 3e 6f 50 d0 3d 00 e9 be 3e 14 5e bf 3d
       0.33776036 0.101715915 0.3728714 0.09344116
0003e0 e2 b1 aa 3e d7 74 18 3e c2 e6 17 3d 45 17 1c 3e
       0.3333884 0.14888321 0.037085302 0.15243252
0003f0 71 0d c6 bd 57 ee 12 3e 86 f3 b3 bd 7c f3 25 be
       -0.096705325 0.14348732 -0.08786683 -0.16206163

mlp_extractor.value_net.0.bias f4 [64]
000000 ce 0e fa 3c 49 11 b5 3c 0b 2d 0d bc 39 c1 cc 3c
       0.030524638 0.022102969 -0.008616696 0.02499448
000010 4a e7 e4 3c cf 03 fa bc d4 73 eb ba cd ef b4 3c
       0.027942318 -0.030519394 -0.0017963597 0.022087002
000020 31 e6 e5 bc 63 29 43 3d c1 77 d2 3c e9 af aa 3c
       -0.028063865 0.04764689 0.025691869 0.020835834
000030 61 b1 93 3c 80 cd fe 3c a6 b0 93 3c d3 33 a0 bc
       0.018028917 0.03110385 0.018028568 -0.019555962
000040 be af b3 3c 3f 15 93 3c a4 44 c2 3c 99 7a c9 bc
       0.021934386 0.017954467 0.023714371 -0.024594592
000050 32 05 cf 3c a9 e9 ba 3d fe c0 fe bc 9a bf dd 3c
       0.025271032 0.091265984 -0.031097885 0.027068902
000060 39 ab 36 3d 1d 21 c6 3c 3f ca 12 3c 65 e4 e4 3c
       0.044596884 0.024185712 0.008959352 0.027940938
000070 35 16 9a 3c ff 48 ae bc 8b f3 ae bc 89 40 dc 3c
       0.018809417 -0.021275042 -0.021356365 0.026886242
000080 ec 90 de 3c 9a 55 bd 3b 35 6a 52 bc ec bb e3 3c
       0.027168714 0.0057780268 -0.012842705 0.02779957
000090 af 96 54 bd 33 e1 03 3d 9d be a6 3c a3 80 15 ba
       -0.051901516 0.03219719 0.020354563 -0.0005703067
0000a0 9d a2 0b 3c 9e ad c1 3c c2 1c c8 bc 93 5a ce bc
       0.008522657 0.023642357 -0.024427775 -0.025189674
0000b0 41 a1 57 bd 64 73 2c bc 69 f2 d4 3c 94 73 82 3c
       -0.052644018 -0.010525558 0.025994496 0.015924253
0000c0 a4 0f 57 3c f8 61 e5 bc 89 a3 c1 3c c5 c9 d9 3c
       0.013126288 -0.028000817 0.02363755 0.026585469
0000d0 65 db a2 bc 2b ad 21 3d 30 c3 4b 3c dd ec b8 3c
       -0.019880006 0.039471786 0.012436673 0.022573883
0000e0 fa 8a dd bc 1f f8 c7 3c e6 54 86 3d 83 57 9e bd
       -0.027043808 0.024410306 0.06559162 -0.07731535
0000f0 28 a1 c1 3b 90 96 6a 3c 21 fc 34 bd 87 e1 3f 3c
       0.005909104 0.014318123 -0.04418576 0.011711485

mlp_extractor.value_net.1.weight f4 [32, 64]
000000 59 64 bb bc 2e e0 b0 3e 0e 01 01 3e e4 84 5e 3e
       -0.022874998 0.34546036 0.12598059 0.21730381
000010 8c fd ef 3d 05 83 88 be d6 b5 8d bd 3a 88 8b 3e
       0.11718282 -0.2666246 -0.06919448 0.2725237
000020 9e ff ca 3d b6 f5 4d be 10 3a b5 3d 02 f9 e9 bb
       0.09912036 -0.20113263 0.08848965 -0.0071402797
000030 6f 4a 10 bd 55 a5 07 3f d9 1a e8 3d 43 6f 88 bd
       -0.035227235 0.5298665 0.11333246 -0.066618465
000040 60 32 2d 3b 09 9f e1 3d 9c 23 f3 3d 48 e8 ab 3d
       0.002642773 0.11016662 0.11872026 0.083939135
000050 40 5d 97 3e c4 04 08 be 7f 5c 01 3e 5c f5 a6 3c
       0.29563332 -0.13283068 0.1263294 0.020380668
000060 ae 11 1f 3e 0e 65 c7 3e c5 6c 08 3d 4d 1c aa 3e
       0.15534088 0.38944286 0.033306856 0.33224717
000070 ff 7f 4a be 9b 24 32 3d 52 25 06 3d db 72 ff 3d
       -0.19775389 0.04349194 0.032750435 0.12473079
000080 0b d2 04 3d a7 6c 67 3d 02 e5 8b be 54 59 32 3e
       0.032426875 0.056500103 -0.27323157 0.17416888
000090 8b da 40 bc 9f 2a 9f 3d d3 ee 8c 3e 3c c6 38 3b
       -0.011770855 0.07771801 0.27525958 0.0028194329
0000a0 b3 b6 be bc 0e a5 85 be c2 83 15 3e 5a 0d 3d 3e
       -0.023280477 -0.2610249 0.14601043 0.18462124
0000b0 04 eb 78 3e 1b ce 25 3c 1d a5 c5 bd de b2 1c 3e
       0.24308401 0.01011994 -0.096506335 0.15302607
0000c0 7d ba ab 3e e6 cf 96 be fc 34 bc 3b ac 34 b8 3d
       0.33540717 -0.2945549 0.005743621 0.08994421
0000d0 de a9 87 bc b9 4d 7f bd 7b c9 3a 3e ed b1 26 be
       -0.016560491 -0.06232998 0.18240921 -0.16278811
0000e0 2c ea 1a 3e 35 a4 d2 3e e3 88 a0 3d 74 16 2e bd
       0.15128392 0.41140905 0.07838609 -0.04250188
0000f0 e8 3d 22 3e 80 cc ac 3b 36 7b 4c 3e 91 52 55 bd
       0.15843928 0.0052734017 0.19968876 -0.052080695
000100 88 71 98 3c fd 04 2b 3e 0b a7 cc 3c c9 5c 4b bc
       0.018608823 0.16701122 0.024981996 -0.012412258
000110 a7 16 f5 bd 72 97 5c bd 51 3c 88 3e 0e 2a 5d 3d
       -0.11967211 -0.053855367 0.26608518 0.053995185
000120 b5 36 57 be e6 b6 3f be 4b 6c d9 3e 89 85 84 be
       -0.21016963 -0.18722114 0.42465433 -0.2588313
000130 d0 5f 6a 3e c2 37 02 3e 75 cc 60 be 0e ef 20 be
       0.22888112 0.12716582 -0.21952994 -0.15716192
000140 49 98 63 3e 87 a4 48 3e 6d 1e 8f 3e b9 13 fb 3d
       0.22226061 0.19594012 0.279529 0.12259621
000150 48 35 58 3c 13 44 dc be 01 9c 9f be c5 4b 42 3e
       0.013196297 -0.43020687 -0.3117371 0.18974216
000160 20 29 93 bd fa 34 3d bd b0 79 94 bd 22 ba 43 be
       -0.07185578 -0.0461931 -0.072497725 -0.19113973
000170 7c 3a 41 be d4 5f 35 3d dd 75 37 3e 0c 81 9a 3e
       -0.18869966 0.044280842 0.17916055 0.3017658
000180 f6 ee d2 3d cd 01 c0 bd 48 e4 bd bc ae 1f 72 3e
       0.102994844 -0.093753435 -0.023180142 0.23644897
000190 eb d8 25 be 63 e9 bb 3e 45 57 2f be 76 cb 92 3d
       -0.16196029 0.36701497 -0.17123134 0.07167713
0001a0 fb 61 4a be 1e e6 b9 bd 81 ce 0a be c2 95 79 3c
       -0.19763939 -0.090770945 -0.13555337 0.015233459
0001b0 01 73 13 3e dc 93 32 3e 96 18 d3 3d d0 c8 7c 3d
       0.1439934 0.17439216 0.10307424 0.061714947
0001c0 22 9c 31 be 99 71 12 be e1 50 de 3e c9 65 6e be
       -0.17344716 -0.14301147 0.4342108 -0.23281015
0001d0 5f 42 dc bc 9f 2f 55 be 86 74 62 bd 9b 9e ea 3d
       -0.026887117 -0.20818947 -0.055286907 0.11456033
0001e0 89 ab 5e be 02 e1 26 be 0e 8a 5c 3a cf 31 2a 3d
       -0.21745123 -0.16296771 0.0008412906 0.041551407
0001f0 dd 59 74 3c 8b 1b 6a 3e ce ee b5 3c 9a dc c3 3c
       0.014914003 0.2286207 0.022208598 0.023908902
000200 a4 c1 17 3e 91 7a c9 bd 4f 7b 3b 3e 8a dd 29 3d
       0.14819962 -0.09837831 0.18308757 0.04147104
000210 3f 56 a5 be 1d d4 53 3e 49 29 4f bd a9 1d d8 bd
       -0.32292363 0.20686384 -0.050576482 -0.10552532
000220 96 49 f9 3d 71 c8 ae be fd ae 93 be b9 b9 36 bd
       0.121722385 -0.341373 -0.28844443 -0.044610713
000230 a4 ef 07 3b d3 2e 5a be 16 37 35 3e 18 49 28 3d
       0.0020742202 -0.21306925 0.17696795 0.041085333
000240 71 51 33 be 9b 19 20 3d 04 a2 ce bd 69 7f 9d 3e
       -0.17511536 0.03908692 -0.10089496 0.3076127
000250 a1 7e ab 3c 8b 3c 9c bc 47 f1 c6 bb a8 19 d5 be
       0.020934405 -0.019071838 -0.006071243 -0.41621137
000260 08 87 c4 3e f2 05 37 be 05 d3 94 be 0b 62 b1 3d
       0.3838427 -0.17873362 -0.29067245 0.08661278
000270 a6 33 32 be f4 4f 24 3d 36 1c a7 3e 86 cf bc be
       -0.17402515 0.04011531 0.3263871 -0.36877078
000280 aa c3 6a bd da d4 f2 3e 40 ca 28 3d f6 13 11 be
       -0.057315506 0.47428018 0.041208506 -0.1416777
000290 ab 26 ca 3d 94 bc 48 bd 7f fd 81 be e2 7b 36 be
       0.098706566 -0.049007967 -0.25388715 -0.17820695
0002a0 99 e4 ab be 56 7c 07 3e 95 89 79 bd 61 f8 8f 3c
       -0.33572844 0.13231024 -0.060922224 0.017574491
0002b0 4b 36 4a bd 3f e3 3f 3d 57 12 d0 be e0 a7 85 bd
       -0.049368184 0.04684758 -0.40638992 -0.0652616
0002c0 f0 60 bc 3d 5c 5a 41 be 1c d4 1e ba f7 2f 8c be
       0.09198177 -0.18882126 -0.00060588284 -0.27380344
0002d0 1e 21 d7 3d c8 da 01 3d 8c 2f 8d be 76 20 c8 3d
       0.105043635 0.031702787 -0.27575338 0.097718164
0002e0 d4 c7 79 3d 45 43 b2 3c fb ff 12 3e 48 6d 68 3e
       0.060981587 0.021760592 0.14355461 0.22697937
0002f0 6d 27 4b bd db 8c a4 bd 20 c2 da bd 23 e3 ab 3d
       -0.049598146 -0.080346785 -0.10681558 0.08392932
000300 3d a8 df 3c e3 01 ce be 15 44 02 3e 00 27 51 3d
       0.027301902 -0.40235814 0.12721284 0.051062584
000310 42 8c 67 3d 3f da 7e 3d 54 3b e4 be 9e 0b 8e 3d
       0.056530245 0.062219854 -0.44576514 0.069358096
000320 63 3f 4d 3c 81 d5 50 3d ba 18 c5 bd 49 52 fe bd
       0.01252732 0.050984863 -0.09623857 -0.124180384
000330 76 d2 12 bd 56 24 ee bd 99 b1 0f 3e 12 d1 bc bc
       -0.035845242 -0.11628024 0.14032592 -0.023048911
000340 48 cc 3f 3e b0 f8 90 be 50 d2 0b 3b 69 43 78 be
       0.18730271 -0.28314734 0.0021335073 -0.24244465
000350 cc 53 0b be e0 df 4f be 10 0e 12 be df 8e 9a bd
       -0.13606185 -0.20300245 -0.14263177 -0.07546782
000360 46 17 5e 3e 3d 69 0a be 3a 6b f1 bd 85 c5 14 3e
       0.21688566 -0.13516708 -0.1178803 0.14528473
000370 f3 66 27 3d fc 10 9e 3d b6 dd 26 bc 0f f4 27 3e
       0.040869664 0.07718083 -0.010184696 0.16401695
000380 1e 61 04 be 12 d8 d6 be ac 7e 12 bd 67 8e f8 b9
       -0.12927672 -0.41961724 -0.035765335 -0.00047408344
000390 9a 95 16 bd 33 db b5 3c fe c2 72 3c 54 7d 4f 3e
       -0.036763765 0.022199249 0.014816998 0.20262653
0003a0 61 6a e0 bd 29 7d f3 3d cf 32 0f 3e 55 59 bd be
       -0.1095779 0.11889107 0.13984226 -0.36982217
0003b0 6e 2b 11 3d ff de 7d 3e 09 c7 1a bf 90 b7 b7 bd
       0.03544181 0.24792098 -0.60459954 -0.08970559
0003c0 3f 3b f6 3d f4 e2 17 be 09 89 08 bd 96 e3 0e be
       0.12023019 -0.1483267 -0.033333812 -0.13954005
0003d0 9e 18 70 bd a0 cb 26 3e fe af 71 bd 11 76 aa 3d
       -0.058617227 0.16288614 -0.05900573 0.08323301
0003e0 6a e8 5d 3e 51 6b 83 bc ad b7 0b 3d ee a9 9b be
       0.2167069 -0.016042383 0.034110714 -0.30403084
0003f0 5f f0 2f be 38 92 86 3e be 1e 38 3e 89 e9 2e 3e
       -0.17181538 0.2628343 0.17980477 0.17081274

mlp_extractor.value_net.1.bias f4 [32]
000000 da 62 aa 3c 4a bd ab 3c f2 9c b4 bc f5 a9 88 bc
       0.02079909 0.020964283 -0.022047494 -0.016682604
000010 14 f8 b9 3c c0 75 dd bc 98 50 b1 bc 29 07 94 3c
       0.0227013 -0.027033687 -0.021644875 0.01806982
000020 93 ab e0 3c 39 e4 b7 bc 92 87 8b bc 33 bb 89 bc
       0.027425563 -0.022447692 -0.017032418 -0.016812896
000030 4c a9 80 bc 7d 62 23 bc 22 04 c4 bc 08 f2 c0 3c
       -0.015705727 -0.009972212 -0.023927752 0.02355291
000040 d6 ec ad 3c 07 1f ed bb ec fc ad bc 37 05 aa bc
       0.021231096 -0.0072363648 -0.021238767 -0.02075444
000050 8e 75 aa 3c 3d 9a ad bc 9f e4 a7 3c 3f 3f 70 bb
       0.020808008 -0.02119171 0.020494757 -0.0036658791
000060 1c 18 b0 3c f2 6d 4a bc 28 f7 b8 3c 21 0e a7 bc
       0.021495871 -0.012355315 0.02257879 -0.02039248
000070 25 1b 9f 3c 96 fa 36 bc f3 6e 90 3c 75 79 a5 3c
       0.019422123 -0.011168143 0.01763103 0.020199517

mlp_extractor.value_net.2.weight f4 [1, 32]
000000 4f ce f2 3e 81 4c d9 3e f2 7a e7 be 4b d5 f1 bd
       0.47423026 0.4244118 -0.45210987 -0.118082605
000010 49 f7 54 3e 80 33 a7 ba 8e 3e fb bd 94 f0 3a 3e
       0.20797457 -0.0012756437 -0.12267791 0.18255836
000020 17 c6 74 3c 8e e0 fd bd 81 e3 7c bd eb 21 e0 bd
       0.014939806 -0.12396346 -0.061740402 -0.10943969
000030 21 85 fb 3b 58 61 41 bd 57 92 24 bd 09 f0 1c 3e
       0.0076757823 -0.047211975 -0.040178623 0.15325941
000040 0f 7f 96 3e 1b e1 8d bc 04 e2 0f bf 37 ff c3 be
       0.29393813 -0.017319253 -0.5620425 -0.3828065
000050 03 1d e9 3e 91 83 0d bf e4 9f e9 3e 6f 60 a7 bc
       0.45529947 -0.5527888 0.456298 -0.020431725
000060 98 6b 2e 3e d7 43 60 bd 96 7b ba 3d 3a 92 c4 be
       0.17033231 -0.054752197 0.091056034 -0.38392812
000070 7f 6d 80 3e 21 7f 34 3d c7 02 a6 bc d4 09 07 3f
       0.2508354 0.044066552 -0.020264996 0.5274937
