Aurora/gym/results/onnx_models/aurora_mid_original.onnx (onnx, 7107 bytes, 5 tensors)

policy_net.0.weight f4 [32, 30]
0.33203143 -0.3655708 -0.1246034 -0.3018336 -0.28383866 0.0033380787 0.1953225 -0.20522776
-0.5820733 0.0813637 -0.07875089 -0.20478389 -0.19748044 0.2919888 0.232763 0.28188738
0.32512003 0.023337157 0.15931925 -0.01095794 0.1293441 -0.31974074 0.099350385 -0.26658958
0.018178279 -0.29779235 -0.13724764 0.27768287 0.39914635 0.013201149 0.022154726 0.08757301
0.20972975 -0.285758 -0.2778993 0.05372392 -0.36032644 0.1381426 0.17252919 -0.41966772
-0.3698293 -0.441639 0.64021 0.03295662 0.060196716 0.2242599 0.2533628 0.30956596
-0.11987608 0.084136866 -0.1851727 -0.21789674 -0.010518054 0.036149956 -0.44570932 -0.20155567
-0.03266972 -0.11605536 -0.25078744 -0.036042497 0.27141824 -0.23063356 0.12056972 0.16213392
-0.07466547 -0.024653152 0.17522758 0.04387066 0.09579185 -0.34264866 -0.13653006 -0.25365844
-0.10789986 0.0391325 -0.41084626 -0.14082326 0.04095465 -0.057887636 -0.06651246 0.23352633
0.15884346 -0.17806053 0.5159481 0.14920057 0.5950161 0.054813996 -0.3211909 0.26210928
-0.31768587 0.3526706 -0.3430154 -0.4001159 -0.07137284 -0.2905976 -0.13015221 -0.37706903
-0.0018756761 0.43435887 -0.021091655 0.056248672 0.18137999 0.15416552 -0.11759143 0.42446557
0.057728145 -0.25041792 -0.13957162 -0.1701277 -0.030405736 -0.26121336 -0.12294124 -0.045003403
0.34538406 0.25402707 -0.00586417 -0.432241 -0.17948712 -0.5904239 -0.20144412 -0.11314276
0.010886145 -0.23914623 -0.63375705 -0.33672056 -0.21833546 0.31731683 -0.27128214 0.15470016
0.018720929 -0.048235297 -0.032247536 -0.051818237 0.11795789 0.13646823 0.051582243 0.2945366
-0.4928417 -0.06123902 -0.29521766 0.038763754 0.058838613 0.02988683 -0.5717347 -0.21899268
0.53295153 0.03160473 0.0179947 -0.061287604 -0.120198004 0.09924749 -0.107698366 0.052608646
0.27297515 -0.48955244 -0.15796787 -0.42425543 -0.062135454 -0.042618062 -0.3330205 0.06951094
-0.29931897 -0.04413977 0.11621301 -0.090234905 0.16368438 0.18562938 -0.3788602 -0.18980864
0.146151 0.128798 -0.25517786 0.37180626 0.21397689 0.2514394 0.08406319 0.51796603
-0.045321286 0.11453342 0.42646888 -0.0991088 -0.15171057 0.57790154 0.085184105 0.0011889073
0.28453326 -0.14718778 0.4211688 -0.14985394 0.10358688 0.08557894 0.020457678 -0.23182009
0.12910892 0.30368528 0.10313613 0.34224603 -0.48412427 0.0028829041 -0.17636645 -0.13299692
-0.4907074 -0.06381366 0.21273729 -0.27126417 0.20253561 -0.35276943 -0.12851338 0.24890348
-0.19325949 0.15424132 -0.0070907744 0.24728552 -0.27989483 0.1264969 0.1259595 -0.46773943
-0.32268623 0.3577222 -0.22786625 -0.14083739 -0.05636192 -0.14760478 0.072774455 -0.3689515
0.20613167 -0.1442017 0.2683079 -0.7325017 -0.066473536 0.071536206 0.08487945 0.05283906
-0.07677359 -0.3951648 -0.11092858 -0.11723102 -0.4023331 0.14778394 -0.091438174 0.1770432
-0.19860862 -0.13707432 0.3129395 0.081746854 0.15636891 0.36671507 0.17710784 0.3246362
0.10918264 -0.28141755 -0.15371594 0.15127116 0.11277389 0.0090021845 0.5174645 -0.17506072
00000000: 0600 aa3e 192c bbbe 1130 ffbd ef89 9abe
00000010: 4d53 91be abc3 5a3b 9f02 483e 3a27 52be
00000020: c102 15bf 03a2 a63d 2648 a1bd deb2 51be
00000030: 5038 4abe 8e7f 953e 6d59 6e3e 8b53 903e
00000040: 2276 a63e 912d bf3c 9624 233e ee88 33bc
00000050: c872 043e 0fb5 a3be 3778 cb3d 6e7e 88be
00000060: 9dea 943c 3d78 98be a58a 0cbe 732c 8e3e
00000070: e95c cc3e a249 583c d47d b53c 7a59 b33d
00000080: 65c3 563e df4e 92be d148 8ebe 9d0d 5c3d
00000090: b57c b8be 4175 0d3e 7eab 303e b0de d6be
000000a0: 445a bdbe 821e e2be cde4 233f 85fd 063d
000000b0: d590 763d 63a4 653e c5b8 813e 6e7f 9e3e
000000c0: 9781 f5bd f34f ac3d ea9d 3dbe 5320 5fbe
000000d0: ea53 2cbc fa11 143d 0334 e4be 9c64 4ebe
000000e0: afd0 05bd 6fae edbd 3667 80be 4ca1 13bd
000000f0: 55f7 8a3e 342b 6cbe 42ed f63d 6f06 263e
00000100: 36ea 98bd 68f5 c9bc dc6e 333e b9b1 333d
00000110: 842e c43d a56f afbe 89ce 0bbe 85df 81be
00000120: 9afa dcbd 6649 203d 715a d2be f933 10be
00000130: 10c0 273d 961b 6dbd af37 88bd 8721 6f3e
00000140: dca7 223e 8055 36be 2d15 043f 09c8 183e
00000150: fa52 183f a484 603d 2273 a4be 3033 863e
00000160: b9a7 a2be 3e91 b43e b79f afbe fedb ccbe
00000170: ec2b 92bd 35c9 94be 9f46 05be 310f c1be
00000180: 3fd9 f5ba 4964 de3e 68c8 acbc 0265 663d
00000190: adbb 393e 91dd 1d3e c7d3 f0bd 8d53 d93e
000001a0: 5974 6c3d c736 80be ddeb 0ebe f535 2ebe
000001b0: 7315 f9bc c2bd 85be 9ec8 fbbd 7d55 38bd
000001c0: 2ed6 b03e d60f 823e 3928 c0bb b14e ddbe
000001d0: 79cb 37be 0526 17bf 5e47 4ebe 64b7 e7bd
000001e0: cd5b 323c c0e2 74be e73d 22bf a366 acbe
000001f0: 5593 5fbe 5a77 a23e 7ee5 8abe b869 1e3e
00000200: a25c 993c 6092 45bd fe15 04bd 5c3f 54bd
00000210: e893 f13d 54be 0b3e e747 533d 80cd 963e
00000220: bf55 fcbe c4d5 7abd c526 97be bec6 1e3d
00000230: c200 713d 3ad5 f43c 355d 12bf 9e3f 60be
00000240: 836f 083f f673 013d 9f69 933c b608 7bbd
00000250: 5f2a f6bd 4542 cb3d f690 dcbd 2a7c 573d
00000260: 66c3 8b3e 9ea6 fabe 54c2 21be 0238 d9be
00000270: bf81 7ebd 4790 2ebd aa81 aabe c05b 8e3d
00000280: 5640 99be e7cb 34bd 1601 ee3d 14cd b8bd
00000290: e19c 273e a115 3e3e f7f9 c1be 325d 42be
000002a0: 9ca8 153e 9fe3 033e aca6 82be 645d be3e
000002b0: c21c 5b3e aabc 803e 5229 ac3d 6c99 043f
000002c0: d0a2 39bd 7f90 ea3d 215a da3e 8ef9 cabd
000002d0: 045a 1bbe 5bf1 133f 0175 ae3d 1cd5 9b3a
000002e0: 58ae 913e 65b8 16be 70a3 d73e 5073 19be
000002f0: 5c25 d43d 0344 af3d dc96 a73c 3f62 6dbe
00000300: 2135 043e a37c 9b3e 0939 d33d df3a af3e
00000310: 23df f7be 1bef 3c3b 6899 34be 5830 08be
00000320: 003e fbbe bcb0 82bd ced7 593e 23e3 8abe
00000330: 7f65 4f3e 329e b4be 0399 03be 8ee0 7e3e
00000340: d1e5 45be 70f1 1d3e ba59 e8bb 6a38 7d3e
00000350: 604e 8fbe 6788 013e 87fb 003e 8b7b efbe
00000360: 2137 a5be 5d27 b73e c555 69be ad37 10be
00000370: c2db 66bd b525 17be c60a 953d 36e7 bcbe
00000380: 2e14 533e 9ca9 13be a75f 893e 3b85 3bbf
00000390: 4723 88bd 9381 923d 47d5 ad3d c56d 583d
000003a0: 793b 9dbd 0a53 cabe 862e e3bd d116 f0bd
000003b0: 9bfe cdbe ac54 173e f043 bbbd d04a 353e
000003c0: 0f60 4bbe 365d 0cbe 9b39 a03e e56a a73d
000003d0: 2c1f 203e 14c2 bb3e c25b 353e b736 a63e
000003e0: 269b df3d f615 90be b667 1dbe d4e6 1a3e
000003f0: fff5 e63d e67d 133c 8e78 043f 1e43 33be

policy_net.0.bias f4 [32]
-0.013143289 -0.019377192 0.000339565 -0.003505896 -0.0027569334 0.0014135352 0.0051247696 0.008570911
0.011553305 -0.00807234 -0.0075114537 -0.013304503 0.013546935 -0.0005764589 -0.0055626333 -0.007837732
0.007361093 -0.0050053047 -0.0077941534 -0.0054341503 0.0024496275 -0.0025455412 -0.013103559 0.010729623
0.0033274586 0.015338689 -0.002247551 -0.004091466 -0.0061942553 -0.02475877 -0.0052974075 -0.0017615282
00000000: f356 57bc ebbc 9ebc a507 b239 2dc3 65bb
00000010: abad 34bb 5f46 b93a afed a73b 026d 0c3c
00000020: 134a 3d3c d941 04bc a422 f6bb 21fb 59bc
00000030: f7f3 5d3c 801d 17ba c046 b6bb d569 00bc
00000040: 5335 f13b 8a03 a4bb 1966 ffbb f510 b2bb
00000050: ee89 203b 18d3 26bb 4fb0 56bc 4dcb 2f3c
00000060: 7e11 5a3b 204f 7b3c a64b 13bb b411 86bb
00000070: 2ef9 cabb e7d2 cabc e095 adbb 14e3 e6ba

policy_net.1.weight f4 [16, 32]
-0.61389977 0.27914646 -0.24809955 -0.06492028 -0.048921585 -0.18459523 -0.31902975 0.023584507
-0.24998511 -0.11790354 0.13019758 0.29298186 -0.33226052 -0.20251097 -0.017885871 0.28625986
0.3821922 -0.11414388 0.48377237 -0.06441453 0.030736594 0.3213338 0.07588551 -0.15547422
0.11984589 0.5340133 -0.23795491 0.11836188 0.073931195 -0.029246338 -0.09999565 -0.06678473
0.00866403 0.17870331 -0.21069191 0.1515137 0.1291713 -0.0028899838 0.014494052 0.14916213
0.22542101 -0.18642384 -0.17138615 0.39866123 -0.17457418 0.2306875 -0.109718814 -0.015867367
0.0021145523 -0.5032821 -0.015765315 0.53239465 0.18273719 -0.2623573 -0.24517728 -0.17488585
-0.28093904 0.1983809 0.29549178 -0.6156049 -0.270477 -0.044907875 -0.16946098 0.26231125
-0.113576226 -0.2394727 0.05525584 -0.6548629 0.07138391 0.13909659 -0.028984826 -0.21166725
0.44978982 -0.6233707 -0.031514727 -0.02415852 0.093463466 0.5252541 -0.41051415 0.10264392
0.008247483 -0.01609885 0.036390867 -0.41038203 -0.19812046 0.12040694 -0.011995472 0.17400381
-0.054355998 0.24028699 -0.014798145 -0.1871835 -0.018369634 -0.1603895 0.21669006 -0.121021025
-0.28286824 -0.50657976 -0.10876394 0.13454363 0.37382305 0.17553039 -0.109939 -0.17921604
0.20938069 0.0393868 -0.443269 0.0146774445 0.11147253 -0.50381476 -0.21619672 -0.18946658
0.5250681 -0.0013818518 -0.087109596 -0.26505503 0.11825373 0.055190586 -0.45012623 -0.10130015
-0.18962811 -0.24139597 -0.30647177 -0.12885945 0.046080027 0.2108084 0.050862484 0.21428359
0.15644944 -0.027549133 -0.07281662 0.02331458 -0.68763024 -0.28695178 0.25729775 -0.13942045
0.19286938 -0.33960924 -0.2632101 0.049697425 -0.004131969 -0.055958297 -0.11098358 0.27625653
-0.044508122 0.25854915 0.14165908 -0.13146082 0.0021210862 0.035766903 -0.10038322 -0.29696143
0.1327701 -0.13677573 0.1793592 -0.0986251 0.19602433 0.6456684 -0.45338783 0.10804121
0.25777942 0.11663399 0.084839344 0.2596048 -0.13177061 0.25465152 -0.20758706 -0.23412189
-0.36821684 0.18243496 -0.35409948 -0.19737688 -0.3174593 0.21006867 -0.10536794 -0.079344094
0.19444746 -0.17407794 0.031324122 -0.39997193 0.25800663 0.0973711 0.245281 0.4194298
-0.07386663 0.15796314 0.28555056 -0.40210408 0.5754192 -0.07045221 -0.058400773 0.11134131
0.24237742 0.09878616 0.04372962 -0.11071714 0.17614932 0.34780213 -0.2612433 -0.030749677
0.0475045 -0.04671555 0.06535593 -0.2547726 -0.6030491 0.28930438 0.15325113 0.13931961
0.14681561 0.3672507 0.42878103 0.33626705 0.23750736 0.058673263 -0.07507833 -0.100907944
-0.06305934 -0.33530307 -0.071849875 -0.0033672033 -0.23817627 0.42538244 0.4514278 -0.014103769
-0.059138384 -0.20421892 -0.38204765 0.44938353 0.3772004 -0.20727548 -0.066119574 -0.16568749
-0.26875588 -0.20531014 0.13582923 -0.29279938 0.38197201 0.24068826 0.07111546 0.36851695
0.3762659 0.49124902 -0.117010795 0.023075929 -0.1439097 -0.2903419 0.22791737 -0.03231538
-0.06296538 0.2681942 0.37646475 -0.10635654 -0.16519947 0.10822565 0.027508227 -0.006498403
00000000: 8928 1dbf 49ec 8e3e cf0d 7ebe ecf4 84bd
00000010: 0062 48bd 8806 3dbe de57 a3be 4c34 c13c
00000020: 19fc 7fbe 6977 f1bd 8452 053e b801 963e
00000030: 0d1e aabe 095f 4fbe 6485 92bc a790 923e
00000040: b2ae c33e 44c4 e9bd 03b1 f73e c4eb 83bd
00000050: 4fcb fb3c dd85 a43e dd69 9b3d a234 1fbe
00000060: c371 f53d 18b5 083f 74aa 73be b767 f23d
00000070: 3d69 973d 0496 efbc 85ca ccbd 6fc6 88bd
00000080: 93f3 0d3c 00fe 363e 9fbf 57be 6826 1b3e
00000090: 7b45 043e e265 3dbb 7678 6d3c f5bd 183e
000000a0: c4d4 663e e4e5 3ebe da7f 2fbe 531d cc3e
000000b0: 93c3 32be 5839 6c3e 42b4 e0bd 48fc 81bc
000000c0: 4d94 0a3b 19d7 00bf 4326 81bc 044b 083f
000000d0: 751f 3b3e b253 86be c10f 7bbe 4715 33be
000000e0: 3ed7 8fbe 5d24 4b3e b34a 973e 4898 1dbf
000000f0: f67b 8abe 52f1 37bd 2e87 2dbe a94d 863e
00000100: a79a e8bd 5538 75be f353 623d 18a5 27bf
00000110: ba31 923d 566f 0e3e 9671 edbc 4dbf 58be
00000120: da4a e63e 3995 1fbf 9615 01bd 17e8 c5bc
00000130: c669 bf3d 0d77 063f e92e d2be fa36 d23d
00000140: 7320 073c bce1 83bc 970e 153d 981d d2be
00000150: 17e0 4abe ea97 f63d a888 44bc 0e2e 323e
00000160: 65a4 5ebd cb0d 763e eb73 72bc 08ad 3fbe
00000170: ea7b 96bc 253d 24be 00e4 5d3e dfd9 f7bd
00000180: 1bd4 90be 36af 01bf a1bf debd cec5 093e
00000190: bc65 bf3e 3dbe 333e b327 e1bd 6984 37be
000001a0: e467 563e 0e54 213d 28f4 e2be aa79 703c
000001b0: b64b e43d 01fa 00bf ac62 5dbe 8703 42be
000001c0: dd6a 063f 411f b5ba 8466 b2bd 4bb5 87be
000001d0: 032f f23d 860f 623d f276 e6be 7476 cfbd
000001e0: df2d 42be 8130 77be dee9 9cbe bbf3 03be
000001f0: 69be 3c3d 28de 573e 2e55 503d 286d 5b3e
00000200: 4834 203e b8ae e1bc e120 95bd 38fe be3c
00000210: 8908 30bf 58eb 92be 88bc 833e 3cc4 0ebe
00000220: 8d7f 453e 43e1 adbe 79c3 86be 878f 4b3d
00000230: 7865 87bb 8734 65bd 5c4b e3bd 7f71 8d3e
00000240: 264e 36bd 8e60 843e 140f 113e aa9d 06be
00000250: ec01 0b3b 5180 123d b895 cdbd 540b 98be
00000260: e3f4 073e f00e 0cbe f0a9 373e f5fb c9bd
00000270: 9aba 483e 864a 253f 7322 e8be b644 dd3d
00000280: aafb 833e cddd ee3d 40c0 ad3d ecea 843e
00000290: e0ee 06be af61 823e b491 54be a6bd 6fbe
000002a0: eb86 bcbe 3bd0 3a3e 874c b5be 2a1d 4abe
000002b0: 068a a2be 3e1c 573e 26cb d7bd 287f a2bd
000002c0: 3c1d 473e 7d41 32be b94d 003d 1fc9 ccbe
000002d0: 7219 843e 806a c73d f12a 7b3e 81bf d63e
000002e0: 6347 97bd 17c1 213e af33 923e 96e0 cdbe
000002f0: ac4e 133f 4049 90bd a635 6fbd ea06 e43d
00000300: c931 783e 6650 ca3d d41d 333d abbf e2bd
00000310: 7d60 343e 1f13 b23e afc1 85be bfe6 fbbc
00000320: 1494 423d ce58 3fbd 54d9 853d 8e71 82be
00000330: 6d61 1abf b41f 943e dded 1c3e cda9 0e3e
00000340: d556 163e 4908 bc3e 3089 db3e 322b ac3e
00000350: 2135 733e 6053 703d abc2 99bd d3a8 cebd
00000360: 4125 81bd d8ac abbe 0726 93bd 4cac 5cbb
00000370: 7be4 73be bacb d93e 8b21 e73e 7f13 67bc
00000380: 173b 72bd c41e 51be c09b c3be 9915 e63e
00000390: 6920 c13e 0640 54be b369 87bd fba9 29be
000003a0: 5f9a 89be d23c 52be d116 0b3e cde9 95be
000003b0: d691 c33e fc76 763e fba4 913d 41ae bc3e
000003c0: eda5 c03e fe84 fb3e 5ba3 efbd bb09 bd3c
000003d0: 105d 13be b2a7 94be 2c63 693e 225d 04bd
000003e0: fef3 80bd c050 893e fdbf c03e 75d1 d9bd
000003f0: 0d2a 29be 69a5 dd3d ef58 e13c 8ef0 d4bb

policy_net.1.bias f4 [16]
-0.003387879 0.0025176492 0.014448925 0.009924864 -0.009828933 -0.002903765 -0.01761407 0.0019905241
0.0002743722 0.002804143 0.0042207115 -0.004274696 -0.005625244 0.0147053385 -0.018905833 0.004381678
00000000: 2e07 5ebb 25ff 243b 2fbb 6c3c e69b 223c
00000010: 8809 21bc 184d 3ebb 624b 90bc 7473 023b
00000020: 9dd9 8f39 b6c5 373b e54d 8a3b c012 8cbb
00000030: f853 b8bb a9ee 703c 68e0 9abc 2e94 8f3b

policy_net.2.weight f4 [1, 16]
-0.10749919 0.077376515 0.5671654 0.38645014 -0.33167225 -0.09361787 -0.66138005 0.06041387
0.011753192 0.09833812 0.13572526 -0.16392876 -0.19835697 0.5374272 -0.74722886 0.1509499
00000000: 8928 dcbd 9477 9e3d c031 113f cbdc c53e
00000010: f2d0 a9be baba bfbd 3450 29bf 8974 773d
00000020: 7690 403c 7f65 c93d 90fb 0a3e f1dc 27be
00000030: 171e 4bbe d494 093f 644a 3fbf 9c92 1a3e
