Aurora/gym/results/onnx_models/aurora_small.onnx (onnx, 3514 bytes, 5 tensors)

policy_net.0.weight f4 [16, 30]
0.5293786 -0.37897733 -0.01152989 0.15917714 -0.33553207 -0.16516322 0.07328466 -0.45005646
-0.0077960994 0.11657579 -0.09569243 -0.16415524 0.037402216 0.52733004 -0.37979782 -0.09063202
-0.054870673 0.3802176 -0.08350322 -0.10873038 0.13189295 0.2760998 0.07605018 0.009254463
-0.09934834 -0.23495238 0.31963816 0.112695 0.3842263 0.35319814 0.30143538 0.011958323
-0.020275619 -0.18374209 0.25664127 0.28284606 0.075945236 0.22521237 -0.34672245 0.00084661844
0.3332823 -0.21085727 -0.18996674 -0.6148728 -0.2823885 -0.2582975 0.008632056 0.089198224
-0.03292395 -0.08575827 0.4647243 0.24556428 -0.051038932 0.3490839 0.23107868 -0.045703128
-0.11804515 -0.42366266 0.29691076 0.30664602 -0.0052281516 0.365745 -0.09465933 -0.11155194
0.37840453 -0.2801273 0.15708815 0.0539076 -0.10681832 -0.014058502 -0.1598501 0.023201728
-0.25973725 0.06149991 0.10168806 0.39156815 -0.20183013 0.09126758 -0.3339622 -0.27061015
-0.18784764 0.65685296 0.6109104 0.15882973 -0.16092803 -0.172734 -0.34227565 0.14128642
0.21277025 -0.17143917 0.1300076 0.13660505 -0.06597751 -0.50101775 -0.57840776 0.3091416
0.18645681 0.1154802 0.1618696 0.06602929 -0.049080573 0.049325876 0.4480454 -0.29127935
-0.18870647 0.42692032 0.23521672 -0.1530085 0.09929486 0.103052124 0.042834796 -0.073047206
0.22450535 -0.045382965 -0.38407648 -0.51617336 0.011379037 -0.15682723 0.18245173 -0.20785156
-0.25636598 0.13313714 -0.185685 -0.43980488 -0.029263383 0.534418 -0.06840763 -0.43630138
-0.286427 -0.032997716 -0.16546494 0.0015202414 -0.3656599 0.16862933 0.31170505 0.32872683
0.33475584 0.40482196 -0.024516504 -0.06264765 0.2564704 -0.14821462 -0.032304432 0.24338773
0.24854685 0.12707627 0.33811274 0.24411932 0.08321176 -0.12991536 0.39819053 0.10003174
-0.0012581345 -0.3338875 0.35528123 -0.2381368 -0.08698439 0.467479 -0.1671313 0.1741423
-0.52749044 -0.3974946 0.18184823 -0.055875998 0.1492405 -0.0033805615 0.021293934 0.3049885
-0.3373642 -0.0133108385 -0.35839668 -0.43489122 -0.14081833 -0.096946165 -0.09065304 0.05201305
0.4007375 -0.15976465 0.07884232 0.048475426 0.36192223 0.35171318 -0.15558644 0.027027322
0.2523833 0.31491968 -0.44117093 0.008057974 0.13513023 -0.2767288 0.013622468 -0.023174932
-0.6078853 0.069729745 -0.20082395 -0.1990952 0.14608517 -0.27225187 0.30286852 0.024388418
-0.23891483 -0.31108642 0.23336186 -0.29825586 -0.19803941 -0.38221058 -0.05005606 0.28404447
0.1409098 0.27077523 -0.008842829 -0.3577594 -0.5274184 0.19990583 -0.028415056 -0.22911683
-0.15364717 0.274275 -0.53258955 0.046118535 -0.04124181 0.15268905 0.17825499 -0.26112092
0.13695881 0.12078233 0.112545446 -0.080427036 0.5846604 -0.40643528 -0.23245065 0.09734255
-0.13465887 -0.017395975 0.22584726 -0.19863723 0.06499939 0.38557833 0.3660379 -0.13765228
0.16674118 0.008066335 0.12302318 -0.6617346 -0.032008592 -0.25510216 -0.30733374 -0.14115421
0.34082294 0.29370838 0.0345915 -0.11113791 0.16540356 0.016959868 0.03621813 -0.25620756
00000000: 5b85 073f 5109 c2be dde7 3cbc 55ff 223e
00000010: dcca abbe 8c20 29be 4516 963d cd6d e6be
00000020: 6c76 ffbb 4abf ee3d 65fa c3bd 5018 28be
00000030: 1133 193d 1aff 063f dc74 c2be 489d b9bd
00000040: 12c0 60bd e2ab c23e bc03 abbd 09ae debd
00000050: f20e 073e f45c 8d3e 32c0 9b3d 08a0 173c
00000060: 2477 cbbd 5b97 70be 9da7 a33e a3cc e63d
00000070: 4fb9 c43e 63d6 b43e bd55 9a3e d8ec 433c
00000080: 0e19 a6bc e326 3cbe 7c66 833e 33d1 903e
00000090: 2d89 9b3d 129e 663e 9b85 b1be 9aef 5d3a
000000a0: faa3 aa3e f8ea 57be a486 42be 4e68 1dbf
000000b0: 3a95 90be 923f 84be 786d 0d3c 8fad b63d
000000c0: 44db 06bd 08a2 afbd 58f0 ed3e 3475 7b3e
000000d0: 330e 51bd 20bb b23e e49f 6c3e 3433 3bbd
000000e0: a8c1 f1bd 50ea d8be b004 983e b500 9d3e
000000f0: ea50 abbb ee42 bb3e c0dc c1bd 5875 e4bd
00000100: 3dbe c13e d86c 8fbe b7db 203e 37ce 5c3d
00000110: 90c3 dabd a255 66bc bfaf 23be 8d11 be3c
00000120: 48fc 84be 54e7 7b3d d441 d03d 9f7b c83e
00000130: 8fac 4ebe 7fea ba3d 18fd aabe 6a8d 8abe
00000140: 225b 40be 8427 283f a064 1c3f 43a4 223e
00000150: 51ca 24be 2fe1 30be c13e afbe 63ad 103e
00000160: 72e0 593e c08d 2fbe b620 053e 32e2 0b3e
00000170: 371f 87bd b342 00bf 8812 14bf cf47 9e3e
00000180: 89ee 3e3e e280 ec3d 25c1 253e 5d3a 873d
00000190: b608 49bd ee09 4a3d 3566 e53e 9122 95be
000001a0: 453c 41be 4d95 da3e a7dc 703e 43ae 1cbe
000001b0: 1b5b cb3d fe0c d33d 8a73 2f3d c699 95bd
000001c0: bbe4 653e 7de3 39bd aca5 c4be f023 04bf
000001d0: 246f 3a3c 5197 20be a0d4 3a3e 0ad7 54be
000001e0: 6742 83be 1a55 083e 3524 3ebe 1b2e e1be
000001f0: c3b9 efbc 9ecf 083f 4d19 8cbd e562 dfbe
00000200: 8fa6 92be 9d28 07bd a46f 29be d642 c73a
00000210: c637 bbbe 2bad 2c3e ce97 9f3e e24e a83e
00000220: 1e65 ab3e d344 cf3e d6d6 c8bc 694d 80bd
00000230: 1750 833e 93c5 17be a751 04bd a23a 793e
00000240: 1183 7e3e 4820 023e 1d1d ad3e 6afa 793e
00000250: ed6a aa3d 8808 05be a1df cb3e 71dd cc3d
00000260: fde7 a4ba 4df3 aabe 6ce7 b53e 22da 73be
00000270: df24 b2bd 6859 ef3e 7824 2bbe 5c52 323e
00000280: 9d09 07bf 6a84 cbbe 6c36 3a3e 3bde 64bd
00000290: 80d2 183e 698c 5dbb 9e70 ae3c 7427 9c3e
000002a0: 00bb acbe b415 5abc c57f b7be 10aa debe
000002b0: ae32 10be b68b c6bd 4da8 b9bd a30b 553d
000002c0: 772d cd3e 5899 23be 1578 a13d 2b8e 463d
000002d0: df4d b93e c013 b43e 0d52 1fbe 6768 dd3c
000002e0: 6238 813e 273d a13e 28e1 e1be 9805 043c
000002f0: 945f 0a3e 66af 8dbe c630 5f3c 5bd9 bdbc
00000300: 5f9e 1bbf 78ce 8e3d cba4 4dbe 9ddf 4bbe
00000310: 5a97 153e 9964 8bbe 9511 9b3e 38ca c73c
00000320: 17a6 74be b846 9fbe 69f6 6e3e feb4 98be
00000330: d8ca 4abe 1bb1 c3be 9507 4dbd 476e 913e
00000340: a94a 103e 0da3 8a3e 83e1 10bc 3d2c b7be
00000350: e404 07bf 1db4 4c3e b1c6 e8bc 9a9d 6abe
00000360: af55 1dbe c66d 8c3e ca57 08bf cae6 3c3d
00000370: 2ced 28bd 855a 1c3e 7a88 363e a4b1 85be
00000380: ee3e 0c3e ba5c f73d 3a7e e63d eeb6 a4bd
00000390: 4eac 153f 4918 d0be 8b07 6ebe 885b c73d
000003a0: 04e4 09be 0182 8ebc 8144 673e 8f67 4bbe
000003b0: 661e 853d 866a c53e 5269 bb3e b8f4 0cbe
000003c0: 33be 2a3e a928 043c 94f3 fb3d 7067 29bf
000003d0: 711b 03bd c09c 82be d95a 9dbe bb8a 10be
000003e0: 5880 ae3e f260 963e d1af 0d3d 469c e3bd
000003f0: 8d5f 293e 6cef 8a3c 7659 143d a32d 83be

policy_net.0.bias f4 [16]
0.004750058 -0.023014847 -0.023477526 0.016162034 -0.022780342 -0.011318501 -0.028084772 -0.024462767
0.023242861 0.028780432 0.0060243676 -0.003107386 -0.030066596 0.0068364595 0.014094704 0.01395789
00000000: 60a6 9b3b a289 bcbc f153 c0bc 3e66 843c
00000010: d79d babc 3c71 39bc 0912 e6bc 2466 c8bc
00000020: d067 be3c f1c4 eb3c 0f68 c53b 49a5 4bbb
00000030: 394e f6bc 6104 e03b 79ed 663c a2af 643c

policy_net.1.weight f4 [8, 16]
-0.15138854 -0.42246747 0.26444995 0.23592271 -0.46869242 -0.22129236 0.19676542 -0.1253001
0.004280343 0.012836096 -0.19345795 -0.0079616485 -0.9607027 -0.40782833 -0.44931734 -0.0668019
-0.25774875 0.02703723 -0.33193094 0.26749137 -0.21198952 -0.15073279 -0.8851417 -0.0441387
0.091485806 0.13958462 0.36762804 0.27773473 -0.048846524 -0.14488707 -0.08170624 -0.8809392
-0.200336 0.5375019 0.79640144 -0.1977605 0.3921992 -0.09234783 -0.0047032265 -0.1814675
0.07047467 0.15151449 -0.30975553 -0.21344824 -0.030263936 0.37713042 -0.5065087 -0.46103877
-0.31909937 -0.10610865 0.49811718 0.25373894 -0.14190376 -0.124432 0.4646167 0.4893617
0.48836434 -0.63662004 -0.11004774 0.45042825 0.4402602 -0.1131995 0.2650099 -0.27433535
0.23495339 -0.19691357 -0.0052456814 0.63551944 0.46073177 -0.008515435 -0.06252013 -0.9560977
0.23657364 -0.07738332 -0.3606102 0.35142124 0.16193183 -0.039054036 0.09727521 0.05079653
0.16477117 0.25171286 0.11174468 0.39162716 -0.087719016 4.182137e-06 0.47303522 0.14703004
-0.30460253 0.90645546 0.014423348 0.34103397 -0.19511257 0.08623789 0.5719118 -0.3186082
0.5952558 -0.019202866 -0.1516894 0.23145138 0.30569583 0.17058 0.51275605 0.09623079
-0.3648011 -0.34057954 0.20801707 -0.38522807 0.20037216 -0.48842424 -0.35605854 -0.5807479
-0.4368016 0.21860439 0.109114796 -0.045408227 -0.102138005 -0.06835403 0.0551562 -0.07188656
-1.0069262 -0.17438428 -0.2666448 0.5180326 0.50421417 -0.34883082 -0.32369572 0.24277219
00000000: 9905 1bbe a84d d8be fc65 873e b995 713e
00000010: 74f8 efbe 779a 62be e07c 493e ab4e 00be
00000020: 1f42 8c3b 7d4e 523c d719 46be 9371 02bc
00000030: 9df0 75bf e0ce d0be ec0c e6be 6fcf 88bd
00000040: a5f7 83be 2e7d dd3c daf2 a9be a1f4 883e
00000050: c813 59be b259 1abe a598 62bf c8ca 34bd
00000060: e95c bb3d 45ef 0e3e be39 bc3e 3f33 8e3e
00000070: 4b13 48bd 475d 14be 9a55 a7bd 3b85 61bf
00000080: e124 4dbe b999 093f f7e0 4b3f ba81 4abe
00000090: 55ce c83e dc20 bdbd 861d 9abb 9ed2 39be
000000a0: 0655 903d 9d26 1b3e 4798 9ebe 2d92 5abe
000000b0: 13ec f7bc 3d17 c13e 8eaa 01bf 460d ecbe
000000c0: fe60 a3be 7e4f d9bd 3709 ff3e 12ea 813e
000000d0: 384f 11be 34d6 febd 3de2 ed3e 9e8d fa3e
000000e0: e40a fa3e 88f9 22bf b660 e1bd 889e e63e
000000f0: c969 e13e 24d5 e7bd 61af 873e af75 8cbe
00000100: 9f97 703e b6a3 49be f7e3 abbb 67b1 223f
00000110: 09e5 eb3e 5384 0bbc 8e0a 80bd d2c2 74bf
00000120: 5c40 723e 257b 9ebd e6a1 b8be 7ced b33e
00000130: 75d1 253e 20f7 1fbd 3a38 c73d 0610 503d
00000140: c6b9 283e 82e0 803e 65da e43d 5b83 c83e
00000150: 07a6 b3bd 4954 8c36 ac31 f23e 0b8f 163e
00000160: ddf4 9bbe 770d 683f e84f 6c3c 019c ae3e
00000170: 97cb 47be 7e9d b03d d068 123f 9d20 a3be
00000180: af62 183f 544f 9dbc 7754 1bbe 9701 6d3e
00000190: 2a84 9c3e 86ac 2e3e fb43 033f a614 c53d
000001a0: 36c7 babe 7160 aebe 6d02 553e 9d3c c5be
000001b0: 5c2e 4d3e be12 fabe 4e4d b6be e5ab 14bf
000001c0: 76a4 dfbe d4d9 5f3e 9477 df3d fafd 39bd
000001d0: bb2d d1bd 33fd 8bbd 78eb 613d 4339 93bd
000001e0: f5e2 80bf cb91 32be ab85 88be c99d 043f
000001f0: 2e14 013f f499 b2be 72bb a5be 4699 783e

policy_net.1.bias f4 [8]
0.02635509 0.02139862 -0.020321358 -0.026231078 0.0139332265 0.011220704 -0.025659496 -0.02593422
00000000: a1e6 d73c 294c af3c fa78 a6bc 8fe2 d6bc
00000010: 3048 643c 0bd7 373c dd33 d2bc 0074 d4bc

policy_net.2.weight f4 [1, 8]
-0.7049943 -0.45762303 0.37635773 0.65969163 -0.195912 -0.16333109 0.64859205 0.6744279
00000000: 827a 34bf 914d eabe f6b1 c03e 8de1 283f
00000010: 289d 48be 4440 27be 210a 263f 4fa7 2c3f
