Aurora/gym/result_for_spec_paper/original_model_mid_10_best.pt (torch, 18243 bytes, 10 tensors)

mlp_extractor.policy_net.0.weight f4 [32, 30]
0	0x3eaa0006	0.33203143
1	0xbebb2c19	-0.3655708
2	0xbdff3011	-0.1246034
3	0xbe9a89ef	-0.3018336
4	0xbe91534d	-0.28383866
5	0x3b5ac3ab	0.0033380787
6	0x3e48029f	0.1953225
7	0xbe52273a	-0.20522776
8	0xbf1502c1	-0.5820733
9	0x3da6a203	0.0813637
10	0xbda14826	-0.07875089
11	0xbe51b2de	-0.20478389
12	0xbe4a3850	-0.19748044
13	0x3e957f8e	0.2919888
14	0x3e6e596d	0.232763
15	0x3e90538b	0.28188738
16	0x3ea67622	0.32512003
17	0x3cbf2d91	0.023337157
18	0x3e232496	0.15931925
19	0xbc3388ee	-0.01095794
20	0x3e0472c8	0.1293441
21	0xbea3b50f	-0.31974074
22	0x3dcb7837	0.099350385
23	0xbe887e6e	-0.26658958
24	0x3c94ea9d	0.018178279
25	0xbe98783d	-0.29779235
26	0xbe0c8aa5	-0.13724764
27	0x3e8e2c73	0.27768287
28	0x3ecc5ce9	0.39914635
29	0x3c5849a2	0.013201149
30	0x3cb57dd4	0.022154726
31	0x3db3597a	0.08757301
32	0x3e56c365	0.20972975
33	0xbe924edf	-0.285758
34	0xbe8e48d1	-0.2778993
35	0x3d5c0d9d	0.05372392
36	0xbeb87cb5	-0.36032644
37	0x3e0d7541	0.1381426
38	0x3e30ab7e	0.17252919
39	0xbed6deb0	-0.41966772
40	0xbebd5a44	-0.3698293
41	0xbee21e82	-0.441639
42	0x3f23e4cd	0.64021
43	0x3d06fd85	0.03295662
44	0x3d7690d5	0.060196716
45	0x3e65a463	0.2242599
46	0x3e81b8c5	0.2533628
47	0x3e9e7f6e	0.30956596
48	0xbdf58197	-0.11987608
49	0x3dac4ff3	0.084136866
50	0xbe3d9dea	-0.1851727
51	0xbe5f2053	-0.21789674
52	0xbc2c53ea	-0.010518054
53	0x3d1411fa	0.036149956
54	0xbee43403	-0.44570932
55	0xbe4e649c	-0.20155567
56	0xbd05d0af	-0.03266972
57	0xbdedae6f	-0.11605536
58	0xbe806736	-0.25078744
59	0xbd13a14c	-0.036042497
60	0x3e8af755	0.27141824
61	0xbe6c2b34	-0.23063356
62	0x3df6ed42	0.12056972
63	0x3e26066f	0.16213392
64	0xbd98ea36	-0.07466547
65	0xbcc9f568	-0.024653152
66	0x3e336edc	0.17522758
67	0x3d33b1b9	0.04387066
68	0x3dc42e84	0.09579185
69	0xbeaf6fa5	-0.34264866
70	0xbe0bce89	-0.13653006
71	0xbe81df85	-0.25365844
72	0xbddcfa9a	-0.10789986
73	0x3d204966	0.0391325
74	0xbed25a71	-0.41084626
75	0xbe1033f9	-0.14082326
76	0x3d27c010	0.04095465
77	0xbd6d1b96	-0.057887636
78	0xbd8837af	-0.06651246
79	0x3e6f2187	0.23352633
80	0x3e22a7dc	0.15884346
81	0xbe365580	-0.17806053
82	0x3f04152d	0.5159481
83	0x3e18c809	0.14920057
84	0x3f1852fa	0.5950161
85	0x3d6084a4	0.054813996
86	0xbea47322	-0.3211909
87	0x3e863330	0.26210928
88	0xbea2a7b9	-0.31768587
89	0x3eb4913e	0.3526706
90	0xbeaf9fb7	-0.3430154
91	0xbeccdbfe	-0.4001159
92	0xbd922bec	-0.07137284
93	0xbe94c935	-0.2905976
94	0xbe05469f	-0.13015221
95	0xbec10f31	-0.37706903
96	0xbaf5d93f	-0.0018756761
97	0x3ede6449	0.43435887
98	0xbcacc868	-0.021091655
99	0x3d666502	0.056248672
100	0x3e39bbad	0.18137999
101	0x3e1ddd91	0.15416552
102	0xbdf0d3c7	-0.11759143
103	0x3ed9538d	0.42446557
104	0x3d6c7459	0.057728145
105	0xbe8036c7	-0.25041792
106	0xbe0eebdd	-0.13957162
107	0xbe2e35f5	-0.1701277
108	0xbcf91573	-0.030405736
109	0xbe85bdc2	-0.26121336
110	0xbdfbc89e	-0.12294124
111	0xbd38557d	-0.045003403
112	0x3eb0d62e	0.34538406
113	0x3e820fd6	0.25402707
114	0xbbc02839	-0.00586417
115	0xbedd4eb1	-0.432241
116	0xbe37cb79	-0.17948712
117	0xbf172605	-0.5904239
118	0xbe4e475e	-0.20144412
119	0xbde7b764	-0.11314276
120	0x3c325bcd	0.010886145
121	0xbe74e2c0	-0.23914623
122	0xbf223de7	-0.63375705
123	0xbeac66a3	-0.33672056
124	0xbe5f9355	-0.21833546
125	0x3ea2775a	0.31731683
126	0xbe8ae57e	-0.27128214
127	0x3e1e69b8	0.15470016
128	0x3c995ca2	0.018720929
129	0xbd459260	-0.048235297
130	0xbd0415fe	-0.032247536
131	0xbd543f5c	-0.051818237
132	0x3df193e8	0.11795789
133	0x3e0bbe54	0.13646823
134	0x3d5347e7	0.051582243
135	0x3e96cd80	0.2945366
136	0xbefc55bf	-0.4928417
137	0xbd7ad5c4	-0.06123902
138	0xbe9726c5	-0.29521766
139	0x3d1ec6be	0.038763754
140	0x3d7100c2	0.058838613
141	0x3cf4d53a	0.02988683
142	0xbf125d35	-0.5717347
143	0xbe603f9e	-0.21899268
144	0x3f086f83	0.53295153
145	0x3d0173f6	0.03160473
146	0x3c93699f	0.0179947
147	0xbd7b08b6	-0.061287604
148	0xbdf62a5f	-0.120198004
149	0x3dcb4245	0.09924749
150	0xbddc90f6	-0.107698366
151	0x3d577c2a	0.052608646
152	0x3e8bc366	0.27297515
153	0xbefaa69e	-0.48955244
154	0xbe21c254	-0.15796787
155	0xbed93802	-0.42425543
156	0xbd7e81bf	-0.062135454
157	0xbd2e9047	-0.042618062
158	0xbeaa81aa	-0.3330205
159	0x3d8e5bc0	0.06951094
160	0xbe994056	-0.29931897
161	0xbd34cbe7	-0.04413977
162	0x3dee0116	0.11621301
163	0xbdb8cd14	-0.090234905
164	0x3e279ce1	0.16368438
165	0x3e3e15a1	0.18562938
166	0xbec1f9f7	-0.3788602
167	0xbe425d32	-0.18980864
168	0x3e15a89c	0.146151
169	0x3e03e39f	0.128798
170	0xbe82a6ac	-0.25517786
171	0x3ebe5d64	0.37180626
172	0x3e5b1cc2	0.21397689
173	0x3e80bcaa	0.2514394
174	0x3dac2952	0.08406319
175	0x3f04996c	0.51796603
176	0xbd39a2d0	-0.045321286
177	0x3dea907f	0.11453342
178	0x3eda5a21	0.42646888
179	0xbdcaf98e	-0.0991088
180	0xbe1b5a04	-0.15171057
181	0x3f13f15b	0.57790154
182	0x3dae7501	0.085184105
183	0x3a9bd51c	0.0011889073
184	0x3e91ae58	0.28453326
185	0xbe16b865	-0.14718778
186	0x3ed7a370	0.4211688
187	0xbe197350	-0.14985394
188	0x3dd4255c	0.10358688
189	0x3daf4403	0.08557894
190	0x3ca796dc	0.020457678
191	0xbe6d623f	-0.23182009
192	0x3e043521	0.12910892
193	0x3e9b7ca3	0.30368528
194	0x3dd33909	0.10313613
195	0x3eaf3adf	0.34224603
196	0xbef7df23	-0.48412427
197	0x3b3cef1b	0.0028829041
198	0xbe349968	-0.17636645
199	0xbe083058	-0.13299692
200	0xbefb3e00	-0.4907074
201	0xbd82b0bc	-0.06381366
202	0x3e59d7ce	0.21273729
203	0xbe8ae323	-0.27126417
204	0x3e4f657f	0.20253561
205	0xbeb49e32	-0.35276943
206	0xbe039903	-0.12851338
207	0x3e7ee08e	0.24890348
208	0xbe45e5d1	-0.19325949
209	0x3e1df170	0.15424132
210	0xbbe859ba	-0.0070907744
211	0x3e7d386a	0.24728552
212	0xbe8f4e60	-0.27989483
213	0x3e018867	0.1264969
214	0x3e00fb87	0.1259595
215	0xbeef7b8b	-0.46773943
216	0xbea53721	-0.32268623
217	0x3eb7275d	0.3577222
218	0xbe6955c5	-0.22786625
219	0xbe1037ad	-0.14083739
220	0xbd66dbc2	-0.05636192
221	0xbe1725b5	-0.14760478
222	0x3d950ac6	0.072774455
223	0xbebce736	-0.3689515
224	0x3e53142e	0.20613167
225	0xbe13a99c	-0.1442017
226	0x3e895fa7	0.2683079
227	0xbf3b853b	-0.7325017
228	0xbd882347	-0.066473536
229	0x3d928193	0.071536206
230	0x3dadd547	0.08487945
231	0x3d586dc5	0.05283906
232	0xbd9d3b79	-0.07677359
233	0xbeca530a	-0.3951648
234	0xbde32e86	-0.11092858
235	0xbdf016d1	-0.11723102
236	0xbecdfe9b	-0.4023331
237	0x3e1754ac	0.14778394
238	0xbdbb43f0	-0.091438174
239	0x3e354ad0	0.1770432
240	0xbe4b600f	-0.19860862
241	0xbe0c5d36	-0.13707432
242	0x3ea0399b	0.3129395
243	0x3da76ae5	0.081746854
244	0x3e201f2c	0.15636891
245	0x3ebbc214	0.36671507
246	0x3e355bc2	0.17710784
247	0x3ea636b7	0.3246362
248	0x3ddf9b26	0.10918264
249	0xbe9015f6	-0.28141755
250	0xbe1d67b6	-0.15371594
251	0x3e1ae6d4	0.15127116
252	0x3de6f5ff	0.11277389
253	0x3c137de6	0.0090021845
254	0x3f04788e	0.5174645
255	0xbe33431e	-0.17506072

mlp_extractor.policy_net.0.bias f4 [32]
0	0xbc5756f3	-0.013143289
1	0xbc9ebceb	-0.019377192
2	0x39b207a5	0.000339565
3	0xbb65c32d	-0.003505896
4	0xbb34adab	-0.0027569334
5	0x3ab9465f	0.0014135352
6	0x3ba7edaf	0.0051247696
7	0x3c0c6d02	0.008570911
8	0x3c3d4a13	0.011553305
9	0xbc0441d9	-0.00807234
10	0xbbf622a4	-0.0075114537
11	0xbc59fb21	-0.013304503
12	0x3c5df3f7	0.013546935
13	0xba171d80	-0.0005764589
14	0xbbb646c0	-0.0055626333
15	0xbc0069d5	-0.007837732
16	0x3bf13553	0.007361093
17	0xbba4038a	-0.0050053047
18	0xbbff6619	-0.0077941534
19	0xbbb210f5	-0.0054341503
20	0x3b2089ee	0.0024496275
21	0xbb26d318	-0.0025455412
22	0xbc56b04f	-0.013103559
23	0x3c2fcb4d	0.010729623
24	0x3b5a117e	0.0033274586
25	0x3c7b4f20	0.015338689
26	0xbb134ba6	-0.002247551
27	0xbb8611b4	-0.004091466
28	0xbbcaf92e	-0.0061942553
29	0xbccad2e7	-0.02475877
30	0xbbad95e0	-0.0052974075
31	0xbae6e314	-0.0017615282

mlp_extractor.policy_net.1.weight f4 [16, 32]
0	0xbf1d2889	-0.61389977
1	0x3e8eec49	0.27914646
2	0xbe7e0dcf	-0.24809955
3	0xbd84f4ec	-0.06492028
4	0xbd486200	-0.048921585
5	0xbe3d0688	-0.18459523
6	0xbea357de	-0.31902975
7	0x3cc1344c	0.023584507
8	0xbe7ffc19	-0.24998511
9	0xbdf17769	-0.11790354
10	0x3e055284	0.13019758
11	0x3e9601b8	0.29298186
12	0xbeaa1e0d	-0.33226052
13	0xbe4f5f09	-0.20251097
14	0xbc928564	-0.017885871
15	0x3e9290a7	0.28625986
16	0x3ec3aeb2	0.3821922
17	0xbde9c444	-0.11414388
18	0x3ef7b103	0.48377237
19	0xbd83ebc4	-0.06441453
20	0x3cfbcb4f	0.030736594
21	0x3ea485dd	0.3213338
22	0x3d9b69dd	0.07588551
23	0xbe1f34a2	-0.15547422
24	0x3df571c3	0.11984589
25	0x3f08b518	0.5340133
26	0xbe73aa74	-0.23795491
27	0x3df267b7	0.11836188
28	0x3d97693d	0.073931195
29	0xbcef9604	-0.029246338
30	0xbdccca85	-0.09999565
31	0xbd88c66f	-0.06678473
32	0x3c0df393	0.00866403
33	0x3e36fe00	0.17870331
34	0xbe57bf9f	-0.21069191
35	0x3e1b2668	0.1515137
36	0x3e04457b	0.1291713
37	0xbb3d65e2	-0.0028899838
38	0x3c6d7876	0.014494052
39	0x3e18bdf5	0.14916213
40	0x3e66d4c4	0.22542101
41	0xbe3ee5e4	-0.18642384
42	0xbe2f7fda	-0.17138615
43	0x3ecc1d53	0.39866123
44	0xbe32c393	-0.17457418
45	0x3e6c3958	0.2306875
46	0xbde0b442	-0.109718814
47	0xbc81fc48	-0.015867367
48	0x3b0a944d	0.0021145523
49	0xbf00d719	-0.5032821
50	0xbc812643	-0.015765315
51	0x3f084b04	0.53239465
52	0x3e3b1f75	0.18273719
53	0xbe8653b2	-0.2623573
54	0xbe7b0fc1	-0.24517728
55	0xbe331547	-0.17488585
56	0xbe8fd73e	-0.28093904
57	0x3e4b245d	0.1983809
58	0x3e974ab3	0.29549178
59	0xbf1d9848	-0.6156049
60	0xbe8a7bf6	-0.270477
61	0xbd37f152	-0.044907875
62	0xbe2d872e	-0.16946098
63	0x3e864da9	0.26231125
64	0xbde89aa7	-0.113576226
65	0xbe753855	-0.2394727
66	0x3d6253f3	0.05525584
67	0xbf27a518	-0.6548629
68	0x3d9231ba	0.07138391
69	0x3e0e6f56	0.13909659
70	0xbced7196	-0.028984826
71	0xbe58bf4d	-0.21166725
72	0x3ee64ada	0.44978982
73	0xbf1f9539	-0.6233707
74	0xbd011596	-0.031514727
75	0xbcc5e817	-0.02415852
76	0x3dbf69c6	0.093463466
77	0x3f06770d	0.5252541
78	0xbed22ee9	-0.41051415
79	0x3dd236fa	0.10264392
80	0x3c072073	0.008247483
81	0xbc83e1bc	-0.01609885
82	0x3d150e97	0.036390867
83	0xbed21d98	-0.41038203
84	0xbe4ae017	-0.19812046
85	0x3df697ea	0.12040694
86	0xbc4488a8	-0.011995472
87	0x3e322e0e	0.17400381
88	0xbd5ea465	-0.054355998
89	0x3e760dcb	0.24028699
90	0xbc7273eb	-0.014798145
91	0xbe3fad08	-0.1871835
92	0xbc967bea	-0.018369634
93	0xbe243d25	-0.1603895
94	0x3e5de400	0.21669006
95	0xbdf7d9df	-0.121021025
96	0xbe90d41b	-0.28286824
97	0xbf01af36	-0.50657976
98	0xbddebfa1	-0.10876394
99	0x3e09c5ce	0.13454363
100	0x3ebf65bc	0.37382305
101	0x3e33be3d	0.17553039
102	0xbde127b3	-0.109939
103	0xbe378469	-0.17921604
104	0x3e5667e4	0.20938069
105	0x3d21540e	0.0393868
106	0xbee2f428	-0.443269
107	0x3c7079aa	0.0146774445
108	0x3de44bb6	0.11147253
109	0xbf00fa01	-0.50381476
110	0xbe5d62ac	-0.21619672
111	0xbe420387	-0.18946658
112	0x3f066add	0.5250681
113	0xbab51f41	-0.0013818518
114	0xbdb26684	-0.087109596
115	0xbe87b54b	-0.26505503
116	0x3df22f03	0.11825373
117	0x3d620f86	0.055190586
118	0xbee676f2	-0.45012623
119	0xbdcf7674	-0.10130015
120	0xbe422ddf	-0.18962811
121	0xbe773081	-0.24139597
122	0xbe9ce9de	-0.30647177
123	0xbe03f3bb	-0.12885945
124	0x3d3cbe69	0.046080027
125	0x3e57de28	0.2108084
126	0x3d50552e	0.050862484
127	0x3e5b6d28	0.21428359
128	0x3e203448	0.15644944
129	0xbce1aeb8	-0.027549133
130	0xbd9520e1	-0.07281662
131	0x3cbefe38	0.02331458
132	0xbf300889	-0.68763024
133	0xbe92eb58	-0.28695178
134	0x3e83bc88	0.25729775
135	0xbe0ec43c	-0.13942045
136	0x3e457f8d	0.19286938
137	0xbeade143	-0.33960924
138	0xbe86c379	-0.2632101
139	0x3d4b8f87	0.049697425
140	0xbb876578	-0.004131969
141	0xbd653487	-0.055958297
142	0xbde34b5c	-0.11098358
143	0x3e8d717f	0.27625653
144	0xbd364e26	-0.044508122
145	0x3e84608e	0.25854915
146	0x3e110f14	0.14165908
147	0xbe069daa	-0.13146082
148	0x3b0b01ec	0.0021210862
149	0x3d128051	0.035766903
150	0xbdcd95b8	-0.10038322
151	0xbe980b54	-0.29696143
152	0x3e07f4e3	0.1327701
153	0xbe0c0ef0	-0.13677573
154	0x3e37a9f0	0.1793592
155	0xbdc9fbf5	-0.0986251
156	0x3e48ba9a	0.19602433
157	0x3f254a86	0.6456684
158	0xbee82273	-0.45338783
159	0x3ddd44b6	0.10804121
160	0x3e83fbaa	0.25777942
161	0x3deeddcd	0.11663399
162	0x3dadc040	0.084839344
163	0x3e84eaec	0.2596048
164	0xbe06eee0	-0.13177061
165	0x3e8261af	0.25465152
166	0xbe5491b4	-0.20758706
167	0xbe6fbda6	-0.23412189
168	0xbebc86eb	-0.36821684
169	0x3e3ad03b	0.18243496
170	0xbeb54c87	-0.35409948
171	0xbe4a1d2a	-0.19737688
172	0xbea28a06	-0.3174593
173	0x3e571c3e	0.21006867
174	0xbdd7cb26	-0.10536794
175	0xbda27f28	-0.079344094
176	0x3e471d3c	0.19444746
177	0xbe32417d	-0.17407794
178	0x3d004db9	0.031324122
179	0xbeccc91f	-0.39997193
180	0x3e841972	0.25800663
181	0x3dc76a80	0.0973711
182	0x3e7b2af1	0.245281
183	0x3ed6bf81	0.4194298
184	0xbd974763	-0.07386663
185	0x3e21c117	0.15796314
186	0x3e9233af	0.28555056
187	0xbecde096	-0.40210408
188	0x3f134eac	0.5754192
189	0xbd904940	-0.07045221
190	0xbd6f35a6	-0.058400773
191	0x3de406ea	0.11134131
192	0x3e7831c9	0.24237742
193	0x3dca5066	0.09878616
194	0x3d331dd4	0.04372962
195	0xbde2bfab	-0.11071714
196	0x3e34607d	0.17614932
197	0x3eb2131f	0.34780213
198	0xbe85c1af	-0.2612433
199	0xbcfbe6bf	-0.030749677
200	0x3d429414	0.0475045
201	0xbd3f58ce	-0.04671555
202	0x3d85d954	0.06535593
203	0xbe82718e	-0.2547726
204	0xbf1a616d	-0.6030491
205	0x3e941fb4	0.28930438
206	0x3e1ceddd	0.15325113
207	0x3e0ea9cd	0.13931961
208	0x3e1656d5	0.14681561
209	0x3ebc0849	0.3672507
210	0x3edb8930	0.42878103
211	0x3eac2b32	0.33626705
212	0x3e733521	0.23750736
213	0x3d705360	0.058673263
214	0xbd99c2ab	-0.07507833
215	0xbdcea8d3	-0.100907944
216	0xbd812541	-0.06305934
217	0xbeabacd8	-0.33530307
218	0xbd932607	-0.071849875
219	0xbb5cac4c	-0.0033672033
220	0xbe73e47b	-0.23817627
221	0x3ed9cbba	0.42538244
222	0x3ee7218b	0.4514278
223	0xbc67137f	-0.014103769
224	0xbd723b17	-0.059138384
225	0xbe511ec4	-0.20421892
226	0xbec39bc0	-0.38204765
227	0x3ee61599	0.44938353
228	0x3ec12069	0.3772004
229	0xbe544006	-0.20727548
230	0xbd8769b3	-0.066119574
231	0xbe29a9fb	-0.16568749
232	0xbe899a5f	-0.26875588
233	0xbe523cd2	-0.20531014
234	0x3e0b16d1	0.13582923
235	0xbe95e9cd	-0.29279938
236	0x3ec391d6	0.38197201
237	0x3e7676fc	0.24068826
238	0x3d91a4fb	0.07111546
239	0x3ebcae41	0.36851695
240	0x3ec0a5ed	0.3762659
241	0x3efb84fe	0.49124902
242	0xbdefa35b	-0.117010795
243	0x3cbd09bb	0.023075929
244	0xbe135d10	-0.1439097
245	0xbe94a7b2	-0.2903419
246	0x3e69632c	0.22791737
247	0xbd045d22	-0.03231538
248	0xbd80f3fe	-0.06296538
249	0x3e8950c0	0.2681942
250	0x3ec0bffd	0.37646475
251	0xbdd9d175	-0.10635654
252	0xbe292a0d	-0.16519947
253	0x3ddda569	0.10822565
254	0x3ce158ef	0.027508227
255	0xbbd4f08e	-0.006498403

mlp_extractor.policy_net.1.bias f4 [16]
0	0xbb5e072e	-0.003387879
1	0x3b24ff25	0.0025176492
2	0x3c6cbb2f	0.014448925
3	0x3c229be6	0.009924864
4	0xbc210988	-0.009828933
5	0xbb3e4d18	-0.002903765
6	0xbc904b62	-0.01761407
7	0x3b027374	0.0019905241
8	0x398fd99d	0.0002743722
9	0x3b37c5b6	0.002804143
10	0x3b8a4de5	0.0042207115
11	0xbb8c12c0	-0.004274696
12	0xbbb853f8	-0.005625244
13	0x3c70eea9	0.0147053385
14	0xbc9ae068	-0.018905833
15	0x3b8f942e	0.004381678

mlp_extractor.policy_net.2.weight f4 [1, 16]
0	0xbddc2889	-0.10749919
1	0x3d9e7794	0.077376515
2	0x3f1131c0	0.5671654
3	0x3ec5dccb	0.38645014
4	0xbea9d0f2	-0.33167225
5	0xbdbfbaba	-0.09361787
6	0xbf295034	-0.66138005
7	0x3d777489	0.06041387
8	0x3c409076	0.011753192
9	0x3dc9657f	0.09833812
10	0x3e0afb90	0.13572526
11	0xbe27dcf1	-0.16392876
12	0xbe4b1e17	-0.19835697
13	0x3f0994d4	0.5374272
14	0xbf3f4a64	-0.74722886
15	0x3e1a929c	0.1509499

mlp_extractor.value_net.0.weight f4 [32, 30]
0	0xbc6c7325	-0.0144317495
1	0x3ec52b24	0.38509476
2	0x3d258cf3	0.040417623
3	0xbe094503	-0.13405232
4	0xbe1ef21c	-0.15522045
5	0x3d18656e	0.037206106
6	0xbecc63e7	-0.3991997
7	0x3d3dd711	0.04634768
8	0x3b078a1e	0.002068169
9	0x3d624ab6	0.05524703
10	0xbed515a7	-0.41618082
11	0x3f1146f5	0.56748897
12	0xbed65a00	-0.4186554
13	0x3d50e523	0.05099977
14	0x3dd175d1	0.1022755
15	0xbe9df0e3	-0.30847844
16	0xbea633c8	-0.3246138
17	0xbdc9031e	-0.09815048
18	0xbe91f610	-0.28508043
19	0xbdf4c4d7	-0.11951607
20	0xbc17c0a4	-0.009262238
21	0xbf121934	-0.57069707
22	0x3ed51302	0.41616064
23	0xbd5029bd	-0.050821055
24	0xbf10ff16	-0.5663923
25	0x3e969fa2	0.29418665
26	0x3ccf9df0	0.025343865
27	0xbf99dd32	-1.2020628
28	0xbee89f5e	-0.45434088
29	0x3d09b4ea	0.0336198
30	0x3e3c6599	0.18398131
31	0xbe80b0dd	-0.25134936
32	0x3ae74d0b	0.0017646862
33	0x3cd59510	0.026072055
34	0x3e76f7b3	0.24117927
35	0xbe61694d	-0.22012825
36	0x3eb7cbc3	0.35897645
37	0xbd677c1a	-0.056514837
38	0x3df3f514	0.11911979
39	0x3f11a85c	0.5689752
40	0x3e07ade5	0.13249929
41	0xbd8d8bf3	-0.06911459
42	0x3ed4822e	0.4150557
43	0xbe8d34c8	-0.2757933
44	0xbd9fc3be	-0.07801007
45	0x3e298781	0.16555597
46	0x3c1a3aee	0.009413464
47	0x3ebcb014	0.36853087
48	0x3f7b4c8d	0.9816368
49	0xbda62e06	-0.08114247
50	0xbf09b416	-0.53790414
51	0x3e5f81a1	0.21826793
52	0x3e795b0a	0.24351135
53	0x3e291c61	0.16514732
54	0x3f4fad0d	0.8112343
55	0xbdbe24b8	-0.09284347
56	0x3ead5863	0.33856496
57	0x3eb35795	0.35027757
58	0x3ed649f6	0.41853303
59	0xbe80ab4a	-0.25130683
60	0xbd3473af	-0.044055637
61	0x3e4cd19a	0.20001832
62	0xbdbde887	-0.09272867
63	0xbe4a88ec	-0.19778794
64	0x3e5a2cb4	0.21306115
65	0xbe96c618	-0.2944801
66	0x3eea7368	0.45791173
67	0xbd4fa524	-0.0506946
68	0x3dc4abcb	0.096030794
69	0x3e829983	0.25507745
70	0x3d346f54	0.044051483
71	0xbe3c385b	-0.18380873
72	0x3ee83d6b	0.45359358
73	0x3e88631a	0.26638108
74	0xbe6705b4	-0.2256077
75	0x3f5ba49f	0.85798067
76	0xbe053bc1	-0.13011076
77	0xbdedc5cf	-0.116099946
78	0x3e9f3d5d	0.31101504
79	0xbdfbd33e	-0.122961506
80	0xbe8334c3	-0.25626191
81	0x3f89012b	1.0703481
82	0xbde9c475	-0.11414424
83	0xbe47b7f2	-0.19503763
84	0x3f0f2e20	0.55929756
85	0x3ef57e28	0.47947812
86	0x3ea5a2bd	0.32350722
87	0x3e9cac6b	0.30600294
88	0xbd47fc33	-0.0488245
89	0xbc7799b8	-0.015112333
90	0x3cffd75c	0.031230621
91	0x3dc4c23c	0.0960736
92	0xbdfef183	-0.124484085
93	0xbe8bea76	-0.27327317
94	0x3cadefdf	0.021232544
95	0x3cb84570	0.022494048
96	0x3d71383e	0.058891527
97	0xbbcafb81	-0.0061945324
98	0x3dc72c3b	0.09725233
99	0xbd19ae7b	-0.037519913
100	0xbe220c41	-0.15824987
101	0xbec4ae82	-0.3841439
102	0xbdac63d8	-0.08417481
103	0xbd81ad2c	-0.06331858
104	0xbd82090d	-0.063493825
105	0xbcc26820	-0.023731291
106	0xbf1f4df3	-0.62228316
107	0xbed4d05c	-0.41565216
108	0x3e6c4de3	0.23076586
109	0xbe0977a2	-0.13424543
110	0xbd8c87a8	-0.06861812
111	0x3e3a759d	0.18208928
112	0x3e944986	0.28962344
113	0xbd5204ba	-0.05127404
114	0x3dc5ba48	0.09654671
115	0x3cecdc6a	0.028913695
116	0x3e917dc5	0.28416267
117	0x3f50febb	0.8163869
118	0x3e956534	0.29178774
119	0x3dc4770d	0.0959302
120	0x3e04a320	0.12952852
121	0xbd4d8546	-0.050175928
122	0x3ef89c9b	0.4855698
123	0x3ba0236f	0.0048870365
124	0x3dbcb0ad	0.09213386
125	0xbd2ab6a5	-0.04167809
126	0x3ebcdb4a	0.36886054
127	0xbf608d64	-0.87715745
128	0x3da98144	0.082766086
129	0x3ec61c54	0.38693488
130	0xbe163a95	-0.14670785
131	0x3e2838d7	0.16427933
132	0x3f0b8a04	0.5450747
133	0x3c5e2bde	0.013560263
134	0xbb1b226d	-0.0023671642
135	0x3e0fed51	0.14055373
136	0xbe807648	-0.2509024
137	0x3e590939	0.21194924
138	0xbc0b2368	-0.008492328
139	0x3e5d74df	0.21626614
140	0x3d84e895	0.06489674
141	0x3f181a48	0.594151
142	0xbe03516b	-0.12824027
143	0xbd66002a	-0.0561525
144	0x3eecb39a	0.46230775
145	0xbe2537ec	-0.16134614
146	0x3e216c7b	0.15764038
147	0x3f2c8718	0.67393637
148	0x3a8864dc	0.0010406035
149	0x3eb34613	0.350144
150	0xbe2e1739	-0.17001046
151	0x3d8efefd	0.06982229
152	0xbe945179	-0.2896841
153	0xbd3fd7ba	-0.046836592
154	0xbdc3e773	-0.0956563
155	0x3f0371b8	0.51345396
156	0xbe6c8de8	-0.23101008
157	0xbec6c2e9	-0.3882058
158	0x3ecde339	0.4021242
159	0xbee237bd	-0.4418315
160	0x3e9c7932	0.30561215
161	0x3e7acc03	0.24491887
162	0xbe45f9f2	-0.19333628
163	0x3ed9aff1	0.42517045
164	0xbe85db8d	-0.26144066
165	0xbeaf4faa	-0.34240466
166	0x3cfc4fe0	0.030799806
167	0x3ed94ab7	0.42439815
168	0xbeb96a82	-0.36214072
169	0xbe72674b	-0.23672216
170	0xbe7a9bcc	-0.24473494
171	0xbf30c755	-0.69054157
172	0x3e0a0948	0.13480103
173	0xbea99182	-0.33118826
174	0xbf06d72c	-0.52672076
175	0xbe107a4b	-0.14109151
176	0x3e185e25	0.14879663
177	0xbf1b7666	-0.60727537
178	0xbe2cd0e5	-0.16876562
179	0x3cc60292	0.024171147
180	0x3d6a9905	0.057274837
181	0xbdc0b5a5	-0.09409646
182	0xbdf314f7	-0.11869233
183	0xbe94dfd6	-0.29077023
184	0x3e228663	0.15871577
185	0xbe16a800	-0.14712524
186	0xbdca6b45	-0.09883741
187	0x3db218f4	0.08696166
188	0xbeb08c6a	-0.34482127
189	0x3e824f36	0.25451058
190	0x3eb37e5f	0.3505735
191	0x3e9839a2	0.2973147
192	0x3f5d9e8b	0.8657004
193	0xbd06df51	-0.032927815
194	0x3ec7e638	0.3904283
195	0x3c9af21b	0.018914273
196	0xbd6673f3	-0.05626292
197	0x3e56f8fe	0.2099342
198	0x3f09d8ef	0.5384664
199	0xbe184b88	-0.14872563
200	0x3dfa1ceb	0.12212547
201	0x3f262750	0.64903736
202	0x3e911f04	0.28343976
203	0xbcfb1a2b	-0.030652126
204	0xbdd327f1	-0.103103526
205	0x3e0727e3	0.1319881
206	0xbe8030a0	-0.25037098
207	0x3f2c51a7	0.6731209
208	0x3be5b887	0.0070105228
209	0x3dca162b	0.098675095
210	0xbd08ad11	-0.033368174
211	0xbdc87554	-0.097880036
212	0x3c4bbe1b	0.012435461
213	0x3e96bbc8	0.2944014
214	0xbeab9052	-0.33508545
215	0xbeaf491c	-0.34235466
216	0x3e9d719f	0.3075075
217	0xbe4c95d0	-0.19979024
218	0xbe1796b0	-0.14803576
219	0x3e16a0fc	0.14709848
220	0x3eb435e1	0.35197356
221	0xbd94baf2	-0.072622195
222	0xbe165896	-0.1468223
223	0xbcf4cd47	-0.02988304
224	0xbc3abbe3	-0.011397335
225	0x3e80686f	0.25079677
226	0x3e800ff8	0.25012183
227	0x3d82e05f	0.06390452
228	0x3ec1450a	0.37747985
229	0x3e21ef1b	0.15813868
230	0xbf09ec08	-0.5387578
231	0x3f1c9793	0.61168784
232	0x3eaffdd4	0.34373343
233	0x3d84ceab	0.06484731
234	0x3dbe47fa	0.09291072
235	0x3ea28193	0.31739482
236	0x3e096567	0.13417588
237	0x3f6f837f	0.9356002
238	0xbeeb5ce7	-0.45969316
239	0xbe8ba781	-0.27276233
240	0xbc55ef8b	-0.0130576
241	0xbe7815eb	-0.24227111
242	0x3e36320a	0.17792526
243	0x3ec381fe	0.38185114
244	0xbea98338	-0.33107924
245	0x3d948341	0.07251597
246	0x3e162ad9	0.14664783
247	0xbdb766eb	-0.08955177
248	0x3d96d6f7	0.0736522
249	0xbea89d17	-0.3293235
250	0xbe322057	-0.17395149
251	0x3e6d56de	0.23177668
252	0x3e485e6e	0.19567272
253	0xbd1a219a	-0.0376297
254	0xbe4abb64	-0.19798046
255	0x3d7dbeda	0.06194959

mlp_extractor.value_net.0.bias f4 [32]
0	0x3ea5a3bf	0.3235149
1	0xbea04adf	-0.31307122
2	0xbe982a64	-0.2971984
3	0xbe8ee701	-0.27910617
4	0xbe876655	-0.2644526
5	0x3e96c327	0.29445764
6	0xbe9655b2	-0.29362255
7	0xbe966424	-0.29373276
8	0x3e8c17cb	0.27361903
9	0xbea55386	-0.32290286
10	0x3e8fd70c	0.28093755
11	0xbe1e5d13	-0.15465192
12	0x3e932ee9	0.28746727
13	0xbe6d6fdb	-0.231872
14	0xbe96443c	-0.29348934
15	0xbead63e0	-0.3386526
16	0x3e8d225f	0.27565286
17	0x3eab0290	0.33400393
18	0x3e94a75a	0.2903393
19	0x3e8cba17	0.27485725
20	0x3ea3100b	0.31848177
21	0x3e8e241c	0.27761924
22	0x3e8f867e	0.28032297
23	0x3e92fc47	0.28708097
24	0x3e8eaa73	0.27864417
25	0x3e93639a	0.28786927
26	0x3e907fb8	0.28222442
27	0xbe995734	-0.29949343
28	0xbe67d776	-0.22640786
29	0x3e7c1520	0.24617434
30	0x3e710185	0.23535736
31	0x3e94f089	0.29089764

mlp_extractor.value_net.1.weight f4 [16, 32]
0	0xbed6f3ce	-0.41982883
1	0xbd0df12b	-0.034653824
2	0x3de45a1e	0.11150001
3	0x3f0d67f2	0.5523673
4	0xbdfd270e	-0.12360965
5	0xbe33b595	-0.17549737
6	0xbdcdcbc6	-0.10048632
7	0x3dbec488	0.09314829
8	0x3e7107ce	0.23538134
9	0xbdb7820c	-0.08960351
10	0xbe89305a	-0.26794702
11	0xbe9b39ce	-0.3031754
12	0xbec43171	-0.3831897
13	0xbe9ac388	-0.30227304
14	0x3e2f7123	0.17133002
15	0x3e8cd7ab	0.27508292
16	0xbe9f5cb4	-0.31125414
17	0xbee9b887	-0.45648596
18	0x3e79ee10	0.2440722
19	0x3e0a7715	0.13521989
20	0x3dc032a1	0.09384657
21	0xbc14858a	-0.009065041
22	0xbd2f1520	-0.042744756
23	0x3e4de988	0.20108616
24	0xbeafe985	-0.3435785
25	0x3e9c72c9	0.30556324
26	0xbdb981f4	-0.0905799
27	0xbe7d739d	-0.24751134
28	0x3e5f7387	0.21821414
29	0xbe0e64ba	-0.13905612
30	0x3eb90e46	0.36143702
31	0xbe592757	-0.21206413
32	0x3c542c23	0.012949976
33	0xbd1a5d24	-0.037686482
34	0x3d50a255	0.050936062
35	0xbe480970	-0.1953485
36	0x3dc1c289	0.09460933
37	0x3db22b6c	0.08699688
38	0x3d73fe03	0.059568416
39	0xbf1814ee	-0.59406936
40	0x3e10ce7e	0.1414127
41	0xbe083123	-0.13299994
42	0x3dbaef90	0.09127724
43	0xbd9381ae	-0.07202469
44	0x3e5d6424	0.21620232
45	0x3e656161	0.22400428
46	0xbf2a743e	-0.6658362
47	0xbd9e7dc6	-0.07738833
48	0xbf0f8022	-0.5605489
49	0xbe04478c	-0.12917918
50	0x3ea49238	0.32142806
51	0xbed5024f	-0.41603324
52	0x3e9d6cd8	0.30747104
53	0x3e14584a	0.14486805
54	0x3eb57f82	0.35448843
55	0x3e312bd2	0.17301872
56	0xbe42a5c0	-0.19008541
57	0x3e818901	0.25299838
58	0x3d542a76	0.051798306
59	0xbdac6497	-0.084176235
60	0xbc8a9096	-0.016914647
61	0xbd881634	-0.0664486
62	0xbea8b41f	-0.3294992
63	0x3d9a0831	0.07521094
64	0xbda99fdf	-0.08282446
65	0x3e80f1a2	0.2518435
66	0xbedb4f39	-0.4283388
67	0xbe321ff1	-0.17394997
68	0xbe58226a	-0.21106878
69	0xbde52681	-0.11188985
70	0x3eb3cb80	0.35116196
71	0x3d9fd379	0.07804007
72	0xbe8bca45	-0.27302757
73	0xbd8e0f57	-0.069365196
74	0x3ddb9f96	0.10723798
75	0x3e52dde2	0.20592454
76	0xbd874e55	-0.066067375
77	0x3dfcfab2	0.12352504
78	0x3f07d148	0.5305371
79	0x3f28f542	0.65999234
80	0xbe4e3fb2	-0.20141485
81	0xbe883977	-0.26606342
82	0xbe41bf0c	-0.18920535
83	0xbe3e8574	-0.18605596
84	0xbe7ffdd1	-0.24999167
85	0xbe3112df	-0.17292355
86	0x3ea52842	0.32257277
87	0x3e4b40e0	0.19848967
88	0x3e5b05d4	0.21388942
89	0x3ea6eb47	0.32601377
90	0x3e32bfc5	0.17455967
91	0x3ddd3f70	0.10803115
92	0xbcd3d021	-0.02585608
93	0xbf181e75	-0.59421474
94	0x3cccadca	0.024985213
95	0xbd77ab0c	-0.060465857
96	0x3ee3d91b	0.44501576
97	0xbdc767ab	-0.0973657
98	0x3db323c7	0.08747058
99	0xbe69a890	-0.22818208
100	0xbe0a5ceb	-0.13512008
101	0xbe4d0344	-0.20020777
102	0xbf30152a	-0.68782294
103	0x3e262ff9	0.16229238
104	0xbe439c6b	-0.19102637
105	0xbe9a5b81	-0.30147937
106	0x3e8fbd3e	0.28074068
107	0xbe90d45a	-0.2828701
108	0xbe623685	-0.2209111
109	0x3e1bb78a	0.15206733
110	0xbe2e9064	-0.17047268
111	0xbe54ab53	-0.2076848
112	0x3eb66184	0.35621274
113	0xbea4b7ab	-0.32171378
114	0x3da1526d	0.078770496
115	0x3e3a4de5	0.18193777
116	0x3f2dba47	0.6786236
117	0xba930a05	-0.0011218196
118	0x3af0282b	0.0018322518
119	0x3e689d3d	0.22716232
120	0x3e127118	0.14300954
121	0x3e669061	0.22516014
122	0x3e9a8233	0.3017746
123	0x3d176d4e	0.036969475
124	0xbde65ce4	-0.11248186
125	0xbda2483a	-0.079239324
126	0xbe91378a	-0.28362685
127	0x3ec2b7a2	0.38030726
128	0x3dddfdc5	0.10839418
129	0x3f356e73	0.7087166
130	0x3eafdb12	0.34346825
131	0xbdddfc12	-0.10839094
132	0x3e5ca7ac	0.21548337
133	0xbebc0a97	-0.3672683
134	0x3e488ea4	0.19585663
135	0x3e91d956	0.28486127
136	0x3ebf6530	0.37381887
137	0x3dbd5dae	0.092463836
138	0xbeba1794	-0.36346114
139	0xbdf87bdd	-0.12133
140	0xbe23bec1	-0.15990736
141	0x3e044c62	0.12919763
142	0x3e240778	0.16018474
143	0x3e524425	0.20533808
144	0xbee2cb2c	-0.44295633
145	0x3d0bfeb8	0.034178466
146	0xbebc0ad5	-0.36727014
147	0x3ece81f7	0.4033353
148	0xbed72ab2	-0.4202476
149	0xbc031d54	-0.008002598
150	0x3d89c01f	0.06726097
151	0xbe6df9da	-0.23239842
152	0xbe6738ba	-0.22580233
153	0x3bb1f090	0.0054302886
154	0xbdcfb691	-0.10142244
155	0x3e5a28f3	0.21304683
156	0x3ec58e5e	0.3858518
157	0xbeb76766	-0.35821074
158	0x3d0a08a1	0.033699635
159	0x3ee90880	0.45514297
160	0x3d6da2c9	0.058016572
161	0xbd95b8bc	-0.07310626
162	0x3dc2cbba	0.09511514
163	0xbe455ff4	-0.19274884
164	0xbe344e51	-0.17608
165	0x3e7ec86b	0.24881141
166	0x3dbec4c1	0.093148716
167	0xbe5d0e24	-0.21587425
168	0x3f3714e2	0.7151624
169	0x3bbeaaae	0.0058186864
170	0x3dae5889	0.085129805
171	0xbe3556e1	-0.17708923
172	0xbc13dc04	-0.009024624
173	0xbe702e83	-0.23455243
174	0x3e885eda	0.26634866
175	0xbeb2f016	-0.34948796
176	0x3e02df9d	0.12780614
177	0x3d36e3d5	0.04465087
178	0x3e80e391	0.2517362
179	0xbeab7003	-0.33483896
180	0x3eda9843	0.4269429
181	0xbea2abe7	-0.31771776
182	0xbe00e3fc	-0.12586969
183	0x3c6ee901	0.01458192
184	0x3f3fb613	0.748872
185	0x3e1639d7	0.14670502
186	0xbe117ff8	-0.14208972
187	0x3db8a383	0.090155624
188	0x3dc0407d	0.093873
189	0xbda0f23d	-0.07858703
190	0x3e02b641	0.12764837
191	0x3e3f47a0	0.18679667
192	0xbe0ff41a	-0.14057961
193	0x3d8a77e4	0.067611486
194	0xbe455382	-0.19270137
195	0x3dc83a2f	0.09776723
196	0x3e5799da	0.21054783
197	0x3f0ae60b	0.5425727
198	0xbd804436	-0.0626301
199	0x3e922c38	0.2854936
200	0xbe8baca4	-0.27280152
201	0x3ea8f5eb	0.3300012
202	0x3dcd4426	0.10022764
203	0x3e841b43	0.2580205
204	0x3e9724ce	0.29520267
205	0xbdae60e3	-0.085145734
206	0xbe233124	-0.15936714
207	0xbe8742cb	-0.26418146
208	0xbea0588f	-0.31317565
209	0xbe95775e	-0.29192632
210	0x3e42bb09	0.19016661
211	0x3e854386	0.2602808
212	0x3f268a0c	0.6505439
213	0xbd57f191	-0.05272061
214	0x3e029700	0.12752914
215	0xbcacabb2	-0.021077964
216	0x3e96eeb8	0.29479003
217	0xbeb875e2	-0.36027437
218	0x3e38b815	0.18038972
219	0xbea09a53	-0.3136774
220	0xbdbd57d7	-0.0924527
221	0xbda122bf	-0.078679554
222	0x3e6bcbea	0.23027006
223	0x3ed1ebde	0.41000265
224	0x3e30a71f	0.17251252
225	0xbecfca45	-0.40584007
226	0xba302b06	-0.0006720278
227	0x3e9a092e	0.3008513
228	0xbdb39b8f	-0.08769905
229	0x3db3fe7a	0.08788772
230	0x3d684225	0.056703705
231	0x3dbfd517	0.093668155
232	0xbef694d3	-0.4816042
233	0x3e6a611c	0.22888607
234	0x3d879c4d	0.06621609
235	0xbe6b453c	-0.2297563
236	0xbdceed85	-0.10103897
237	0x3def1b9b	0.11675187
238	0xbe0ab836	-0.13546833
239	0xbdf9345d	-0.12168191
240	0xbe90400b	-0.2817386
241	0x3f4aa957	0.7916464
242	0x3e3627a2	0.17788556
243	0xbd7832c0	-0.060595274
244	0x3de07fff	0.10961913
245	0x3dc2a67f	0.09504413
246	0xbeb91b1b	-0.36153492
247	0x3ece9a38	0.40352035
248	0x3eae9c72	0.34103733
249	0x3e61e2f7	0.22059236
250	0xbba8d712	-0.0051525915
251	0xbd7a514d	-0.06111269
252	0x3e6e16f7	0.23250948
253	0xbe1a49dd	-0.15067239
254	0xbe7953dc	-0.24348396
255	0x3e81f6f5	0.25383726

mlp_extractor.value_net.1.bias f4 [16]
0	0xbe893d50	-0.2680459
1	0x3e8eecc8	0.27915025
2	0xbe9b9d3d	-0.303934
3	0x3e8f9ef6	0.28050965
4	0xbe8e5030	-0.27795553
5	0x3e8d4474	0.27591288
6	0x3e8f9aae	0.280477
7	0x3e94a559	0.290324
8	0x3e8edf88	0.27904916
9	0x3e8a907b	0.27063355
10	0x3e8fc618	0.2808082
11	0x3e8bd754	0.2731272
12	0xbe8f1933	-0.27948913
13	0xbe8aebc0	-0.27132988
14	0xbe8f8f5d	-0.28039065
15	0x3e8d341d	0.27578822

mlp_extractor.value_net.2.weight f4 [1, 16]
0	0x3da7f542	0.08201076
1	0xbea9b2dc	-0.3314427
2	0x3e5f38cf	0.21799015
3	0xbf08cc53	-0.53436774
4	0x3ec8afb8	0.39196563
5	0xbec5432e	-0.38527817
6	0xbe24919d	-0.16071172
7	0xbcce5502	-0.02518702
8	0xbf2c726f	-0.6736211
9	0xbe379134	-0.17926484
10	0xbe857543	-0.26066026
11	0xbe8e3b90	-0.27779818
12	0x3ebfe56f	0.3747973
13	0x3df0f8b3	0.117661856
14	0x3f46d40a	0.77667296
15	0xbf54c5a2	-0.83114064
